sandbox/trained_pattern_model.pt (torch, 56558 bytes, 31 tensors)

layers.0.pattern_dict f4 [8, 64]
0	0xbd6769ff	-0.05649757
1	0x3e382bbe	0.17985436
2	0xbe0678aa	-0.13131967
3	0xb883c7cc	-6.283782e-05
4	0x3d7667c0	0.060157537
5	0xbcda9d9e	-0.026686486
6	0x3d21275a	0.03934417
7	0x3da7150a	0.0815831
8	0x3dbcf859	0.09227056
9	0x3d194f0b	0.037428897
10	0x3d1b0b87	0.03785279
11	0xbcef1a5b	-0.029187372
12	0xbdaadc91	-0.08342851
13	0xbe4702df	-0.19434689
14	0xbcad4bdf	-0.021154342
15	0x3dba296b	0.09089931
16	0xbe341907	-0.17587672
17	0xbd7327e1	-0.059364203
18	0x3d5e24fa	0.054234482
19	0xbd8001fe	-0.0625038
20	0x3d64784a	0.05577878
21	0x3c9b5775	0.018962601
22	0x3e336835	0.1752022
23	0xbde1dbef	-0.11028277
24	0xbd510dea	-0.05103866
25	0x3e0ab846	0.13546857
26	0xbd16727b	-0.03673027
27	0x3e652d2b	0.22380511
28	0x3e35ab5d	0.17741151
29	0xbd81f397	-0.06345289
30	0x3e0d2dbd	0.13786979
31	0x3d538fa6	0.051650666
32	0x3e0d1123	0.13776068
33	0x3e68f0a6	0.2274805
34	0x3dbe03c8	0.09278065
35	0x3e321bb8	0.17393386
36	0x3d91df63	0.07122686
37	0x3e5714b8	0.21003997
38	0xbd8f550f	-0.069986455
39	0xbd0f5fbf	-0.03500342
40	0x3bf12f7c	0.007360397
41	0x3e67da8b	0.22641961
42	0x3a646abe	0.00087134156
43	0xbda1fd55	-0.079096474
44	0xbe402802	-0.18765262
45	0x3e31746a	0.17329565
46	0x3dfc0b75	0.12306873
47	0x3e3ac765	0.18240125
48	0xbcaf5558	-0.021403
49	0xbe286f6e	-0.16448757
50	0x3d6b63d4	0.05746825
51	0x3e12de21	0.14342548
52	0x3d7161d8	0.0589312
53	0x3d7c4bd4	0.061595753
54	0xbdeb9dd9	-0.115047164
55	0xbdea0c19	-0.11428089
56	0x3d2d3b89	0.042293105
57	0xbd1a5fd4	-0.037689045
58	0x3b2dba0b	0.0026508595
59	0x3cfe383a	0.03103267
60	0xbe008966	-0.12552413
61	0x3dce1904	0.10063365
62	0x3e43e746	0.19131193
63	0xbe202540	-0.1563921
64	0xbe0cd95b	-0.1375479
65	0xbd05a68d	-0.03262954
66	0xbe0616b8	-0.13094604
67	0xbc4c6559	-0.012475335
68	0x3e17a0bf	0.14807414
69	0x3d03dd5b	0.032193523
70	0xbda3141f	-0.07962822
71	0xbe201fd7	-0.15637146
72	0xbe280d42	-0.16411307
73	0xbc9fa685	-0.019488582
74	0x3e49de7a	0.19713774
75	0xbd89b2d0	-0.06723559
76	0x3ce4c4d3	0.027925884
77	0xbe62d4d8	-0.22151506
78	0x3da6f750	0.0815264
79	0x3d755d3c	0.05990337
80	0xbd75f251	-0.060045544
81	0x3d869042	0.06570484
82	0xbbfe9b82	-0.007770003
83	0x3dc2d761	0.095137365
84	0xbde954f9	-0.113931604
85	0xbd8f6a38	-0.070026815
86	0xbda5f36e	-0.08103071
87	0x3e1129e1	0.14176132
88	0x3e6344c6	0.22194204
89	0x3d66b69a	0.056326486
90	0x3ded128f	0.115758054
91	0xbe00075e	-0.1250281
92	0xbd5c1670	-0.053732336
93	0xbdd84245	-0.10559515
94	0x3dc0c350	0.09412253
95	0x3dba2afd	0.090902306
96	0xbe07210c	-0.131962
97	0x3e1ba0db	0.1519808
98	0x3d1e3e2b	0.038633507
99	0x3da66bff	0.08126067
100	0x3c94b4ab	0.018152555
101	0xbead7c43	-0.33883867
102	0xbd67692a	-0.056496777
103	0xbe2381d3	-0.15967493
104	0x3c385960	0.011251777
105	0xbd887443	-0.066628
106	0x3c12526f	0.0089307865
107	0x3ddae5f1	0.10688389
108	0x3e489ee4	0.19591862
109	0xbd15429f	-0.036440488
110	0x3d9b2a7f	0.07576465
111	0xbe05c62a	-0.13063875
112	0xba047521	-0.0005052854
113	0xbe47c6a7	-0.19509374
114	0x3ce468c3	0.027881986
115	0x3db19e18	0.08672732
116	0xbc937387	-0.017999424
117	0x3d622699	0.05521259
118	0xbc0bd261	-0.008534045
119	0xbc2c213f	-0.010505973
120	0xbd44660c	-0.047948882
121	0xbe5199e2	-0.20468858
122	0x3e09db36	0.13462529
123	0x3d952574	0.07282534
124	0xbdbdfba0	-0.09276509
125	0x3ca8dfe7	0.020614577
126	0xbd4bf891	-0.0497976
127	0x3d8b109a	0.06790276
128	0x3e854eae	0.2603659
129	0x3d18b4d3	0.037281822
130	0xbd553d39	-0.05206034
131	0xbd0e7b13	-0.03478534
132	0xbd8f04ee	-0.06983362
133	0xbe665f87	-0.22497378
134	0x3dbf93e4	0.0935438
135	0x3e068c7a	0.13139525
136	0x3d9d3a0b	0.076770864
137	0xbd418de7	-0.04725447
138	0x3bc15feb	0.005901327
139	0xbdbd3b0c	-0.09239778
140	0xbce2c2df	-0.027680812
141	0x3e5b98d3	0.21445017
142	0x3d4e0db6	0.050306045
143	0x3dbb4b30	0.091452
144	0xbd151fda	-0.03640733
145	0x3d5b2600	0.053503036
146	0x3d8d892b	0.06910928
147	0xbe53fcae	-0.20701858
148	0xbcd1f2ba	-0.025628436
149	0xbe208a07	-0.15677653
150	0xbce50124	-0.027954645
151	0x3e09a25e	0.13440844
152	0x3ce97d54	0.028502144
153	0x3dd7bb7e	0.10533808
154	0x39f8f38d	0.00047483706
155	0x3e2e4f76	0.170225
156	0xbbb97c83	-0.005660595
157	0x3e09d67a	0.13460723
158	0x3deda6aa	0.11604054
159	0xbdebd283	-0.11514761
160	0xbc4b7f32	-0.012420462
161	0xbd4865e5	-0.0489253
162	0xbd911e53	-0.07085862
163	0xbe6fb813	-0.23410062
164	0x3e0f25f6	0.13979325
165	0x3c616036	0.013755849
166	0x3e3efd54	0.18651325
167	0x3d937d8c	0.072016805
168	0x3e8840e8	0.2661202
169	0x3e0a540b	0.13508622
170	0x3d484ecf	0.048903283
171	0x3dfac36c	0.12244305
172	0xbe1e5eef	-0.15465902
173	0xbe203096	-0.15643534
174	0xbd97a266	-0.07404022
175	0xbd52d390	-0.051471293
176	0x3db395d6	0.08768813
177	0xbe9db3fa	-0.30801374
178	0xbd94426c	-0.072392315
179	0xbd18d409	-0.037311587
180	0x3e7988a1	0.24368526
181	0x3e9344d9	0.28763464
182	0xbd860f26	-0.06545858
183	0xbe19e149	-0.15027346
184	0x3e3cfb24	0.18455178
185	0xbd8a3229	-0.067478485
186	0xbb3ba730	-0.0028633587
187	0xbdd3f002	-0.10348512
188	0x3d523924	0.051324025
189	0xbd16945c	-0.03676258
190	0x3de7ca23	0.113178514
191	0x3cd71863	0.026256746
192	0x3d631149	0.055436406
193	0x3e4bd7f1	0.19906594
194	0xbe03dd75	-0.12877448
195	0xbcfd8e20	-0.03095156
196	0x39c134f9	0.00036851296
197	0x3c31e6eb	0.010858278
198	0x3d99d4cf	0.07511293
199	0x3e1042bc	0.14087957
200	0xbe3ccde1	-0.18437912
201	0xbd8ae20f	-0.067813985
202	0xbe2d400b	-0.16918962
203	0xbe6e7397	-0.23286282
204	0xbc8684ef	-0.01642081
205	0xbe9a609c	-0.30151832
206	0xbd003ae3	-0.03130616
207	0xbe777715	-0.2416652
208	0xba2cf5a7	-0.00065978843
209	0xbc7f2cb1	-0.01557462
210	0xbe0e6e67	-0.13909303
211	0xbca263c4	-0.019822963
212	0xbd729ae4	-0.059229746
213	0x3ea0a6af	0.3137717
214	0x3e6fb39f	0.23408364
215	0xbd94f80f	-0.07273876
216	0x3e59b19e	0.21259162
217	0xbdaca589	-0.08430011
218	0x3dc00d9b	0.09377595
219	0xbe23aece	-0.15984651
220	0xbe300016	-0.17187533
221	0xbdaa057c	-0.08301827
222	0xbe5302fa	-0.20606604
223	0xbc24b175	-0.010052075
224	0x3d9c5c67	0.07634812
225	0xbb3ceb18	-0.002882665
226	0xbcca0087	-0.024658455
227	0x3d4c01e5	0.049806494
228	0x3cd2808a	0.025696058
229	0xbdc9fca6	-0.09862642
230	0x3c7e1516	0.015507957
231	0xbdd21a74	-0.10258952
232	0xbe497143	-0.19672112
233	0xbe900a43	-0.2813283
234	0xbe597de8	-0.21239436
235	0x3e135f7e	0.14391896
236	0x3c9cf96e	0.019161906
237	0xbd9d0480	-0.07666874
238	0xbc8785e3	-0.016543334
239	0x3e0bc4d3	0.13649301
240	0xbc80083e	-0.01562893
241	0xbdd4ba55	-0.103871025
242	0x3ba92d19	0.0051628468
243	0x3d8f6670	0.0700196
244	0xbd147b31	-0.036250297
245	0x3e509e8b	0.2037298
246	0x3d97251e	0.073801264
247	0x3d0ce0e0	0.034394145
248	0x3d394fab	0.045241993
249	0x3df37f57	0.118895225
250	0x3cf7bb18	0.03024058
251	0x3d2c3cf0	0.042050302
252	0x3d4fa206	0.050691627
253	0x3e4823cf	0.1954491
254	0xbe19768d	-0.1498663
255	0xbe0104a2	-0.12599424

layers.0.next_pattern_dict f4 [8, 32]
0	0xbeadc5f3	-0.33940086
1	0x3eeae17f	0.45875165
2	0x3ddbdd3a	0.10735555
3	0x3c79a976	0.015238157
4	0xbdd83fe5	-0.10559062
5	0x3e005134	0.12530977
6	0xbe74bc4b	-0.23899953
7	0x3d271616	0.040792547
8	0x3d7749e1	0.06037319
9	0x3e900b6e	0.2813372
10	0x3e1d7c21	0.15379383
11	0x3d69f1a3	0.05711521
12	0xbe3a65a9	-0.18202843
13	0xbe2e8f27	-0.17046796
14	0x3dc73bce	0.09728204
15	0x3e21a875	0.15786918
16	0x3d88d9b7	0.06682151
17	0x38666f26	5.493979e-05
18	0x3c77c709	0.015123137
19	0x3d3107f9	0.043220494
20	0x3e2d911e	0.16949889
21	0x3e318223	0.173348
22	0xbdb6e3cd	-0.08930168
23	0xbecc3825	-0.39886585
24	0xbdf1d441	-0.11808062
25	0x3e4c6b55	0.19962819
26	0x3d4be5c2	0.04977966
27	0xbe3fa5ad	-0.18715544
28	0xbde5649a	-0.11200829
29	0x3d1725c4	0.03690125
30	0x3dd2b628	0.1028865
31	0xbc938ac9	-0.018010514
32	0xbc99aa39	-0.018757926
33	0x3dc0d7bd	0.09416149
34	0x3e21593d	0.15756698
35	0xbefb3886	-0.4906656
36	0x3ebd7916	0.37006444
37	0x3ddc1db2	0.107478514
38	0x3cdb8f62	0.026801769
39	0x3e78d380	0.24299431
40	0x3e00b178	0.12567699
41	0xbd9a4f6f	-0.07534682
42	0xbe1ef3f8	-0.15522754
43	0x3e0d4db5	0.13799174
44	0x3e23fa1b	0.16013376
45	0xbe053e9b	-0.13012163
46	0x3e2de299	0.16980971
47	0xbeabf798	-0.33587337
48	0x3e06ee2b	0.13176791
49	0x3c70c544	0.014695469
50	0xbc87ff17	-0.016601129
51	0xbe6eb7d6	-0.23312315
52	0xbe6a0a05	-0.22855385
53	0x3e5d518a	0.21613136
54	0x3e4b9bbb	0.19883625
55	0xbe38828f	-0.18018554
56	0xbcc89ee0	-0.02448982
57	0x3e07ae2c	0.13250035
58	0x3bd99888	0.0066404976
59	0x3eb3cdff	0.351181
60	0x3e9fa650	0.31181574
61	0x3e201fbf	0.1563711
62	0xbcd52a1c	-0.026021056
63	0x3e7cb254	0.24677402
64	0xbd88bea6	-0.06676988
65	0xbd7c1b16	-0.06154927
66	0x3dcaa75b	0.09895202
67	0xba1d42a4	-0.0005999005
68	0xbdb2dbc4	-0.08733323
69	0xbe8f3f6c	-0.27978075
70	0x3c2c688d	0.010522974
71	0x3e0e6d5b	0.13908903
72	0x3ddd1d43	0.10796597
73	0xbe8da0c9	-0.27661732
74	0x3da90f33	0.08254852
75	0x3e809650	0.2511468
76	0x3e2b44e8	0.16725504
77	0xbdc02eda	-0.09383936
78	0xbe69aebb	-0.2282056
79	0xbd847c16	-0.0646898
80	0x3d2f443d	0.042789686
81	0xbd85fde3	-0.06542566
82	0xbea36ee7	-0.3192055
83	0x3d02c9ac	0.03193061
84	0xbe025f58	-0.12731683
85	0x3dd5a2fa	0.10431476
86	0xbe027ca8	-0.12742865
87	0x3dc97b74	0.09838
88	0x3e0dd1d0	0.13849568
89	0xbe031464	-0.12800747
90	0xbd24fab4	-0.04027815
91	0x3e94ab3a	0.29036885
92	0xbe14d645	-0.14534862
93	0x3c4faf44	0.012676064
94	0xbd3dbbaa	-0.04632155
95	0x3e36a452	0.1783612
96	0xbe01aae8	-0.12662852
97	0xbe38612b	-0.18005817
98	0xbd18f23d	-0.03734039
99	0xbeb1aa30	-0.34700155
100	0xbec1560c	-0.3776096
101	0x3ed730cc	0.42029417
102	0xbd9bc7b2	-0.07606448
103	0x3df532fe	0.119726166
104	0x3cfc62c0	0.030808806
105	0xbe664ee0	-0.22491026
106	0xbcfb8b04	-0.030705936
107	0x3e158330	0.14600825
108	0xbea35c9c	-0.31906593
109	0xbe03707c	-0.12835878
110	0x3e4b23d9	0.19837894
111	0xbef4993b	-0.47773156
112	0x3dc7d9c4	0.09758332
113	0x3d7ba6ac	0.061438248
114	0x3b77a1b4	0.0037785592
115	0x3e938b15	0.2881705
116	0x3e6c837a	0.2309703
117	0xbe2f99bd	-0.1714849
118	0xbd2cb413	-0.04216392
119	0x3e94dccf	0.29074714
120	0x3dd86c4e	0.105675325
121	0x3e31d0ee	0.17364857
122	0x3d6c4821	0.057685975
123	0xbdb98050	-0.09057677
124	0xbe877046	-0.26452845
125	0x3d8afde5	0.06786708
126	0xbdfac155	-0.122439064
127	0x3d8b9c32	0.06816901
128	0xbd53ca0c	-0.05170636
129	0xbdc7f2ce	-0.09763108
130	0xbe1a20e0	-0.15051603
131	0xbe6099b3	-0.21933632
132	0x3e8b7821	0.2724009
133	0x3e10b177	0.14130197
134	0xbe0bdd21	-0.13658573
135	0xbda4fa9e	-0.08055614
136	0x3e0f2616	0.13979372
137	0xbc12710b	-0.008938084
138	0xbe9836ab	-0.29729208
139	0xbe0a3757	-0.13497673
140	0xbb9121fe	-0.004429101
141	0xbd81bb44	-0.06334546
142	0x3ced281b	0.028949788
143	0xbdb5e96b	-0.088824116
144	0x3e9ff971	0.31244996
145	0x3d8dc814	0.069229275
146	0xbd41c159	-0.04730353
147	0x3d92189b	0.07133599
148	0xbd9ebbee	-0.077506885
149	0x3e65f58a	0.22456947
150	0xbd1d2233	-0.038362693
151	0x3e3b0f4a	0.18267551
152	0x3e9f7665	0.31145015
153	0x3e57f5e0	0.21089888
154	0x3d42c0d3	0.047547173
155	0x3da9728e	0.08273803
156	0xbd51014c	-0.051026627
157	0xbeb7b223	-0.35878095
158	0xbd8a5708	-0.06754881
159	0x3e8974a2	0.26846796
160	0xbd12edce	-0.03587132
161	0xbe130781	-0.14358331
162	0xbe3dab6d	-0.18522425
163	0xbe8f5e4c	-0.2800163
164	0xbe99cbd7	-0.3003833
165	0x3e2cd73b	0.16878979
166	0xbe80e74b	-0.25176463
167	0xbc8eb7dd	-0.017421657
168	0x3c41412d	0.011795324
169	0x3e360da4	0.17778641
170	0xbea882be	-0.32912248
171	0x3cf02c8f	0.029318122
172	0xbdf4765d	-0.119366385
173	0xbdc23e7c	-0.09484574
174	0xbe02f412	-0.12788418
175	0xbe34b96c	-0.17648858
176	0x3e8fdf51	0.28100064
177	0x3e3d7ae3	0.18503909
178	0x3dd2ca6a	0.10292514
179	0xbcac187b	-0.021007767
180	0x3e969bdb	0.29415783
181	0x3da73188	0.08163744
182	0x3d1c438c	0.038150355
183	0x3df55ae9	0.1198023
184	0xbed57506	-0.41690844
185	0xbe9e5974	-0.30927622
186	0xbdffbf30	-0.12487638
187	0x3d85f2da	0.06540461
188	0x3d2394ed	0.03993695
189	0xbcb8d4be	-0.02256238
190	0xbe8d245b	-0.275668
191	0xbd9326b1	-0.07185114
192	0xbdeaca8d	-0.11464415
193	0xbdc49b97	-0.09599989
194	0xbdcfef1c	-0.10153028
195	0xbb7c85e8	-0.0038531963
196	0x3e9ef88c	0.31049
197	0x3e2b5ddf	0.16735028
198	0xbe5dd962	-0.21664956
199	0x3dffe242	0.12494327
200	0x3ca903d3	0.020631706
201	0xbe08cc1b	-0.1335911
202	0xbe56da5d	-0.20981736
203	0xbd83c8df	-0.064347975
204	0xbbed0982	-0.0072337994
205	0xbe109967	-0.14121018
206	0xbda569ea	-0.08076842
207	0x3e85c500	0.26126862
208	0x3b89d572	0.004206353
209	0xbdc71dd9	-0.0972249
210	0x3d88fb78	0.06688589
211	0xbd99a9f0	-0.07503116
212	0x3d6dd5ed	0.058065344
213	0x3e7c4e07	0.2463914
214	0xbdd5ad35	-0.10433427
215	0x3e0f433b	0.1399049
216	0x3e63d45e	0.2224898
217	0x3e08dce1	0.13365509
218	0x3d8b2fdf	0.0679624
219	0x3e5679ce	0.20944902
220	0x3da11713	0.07865729
221	0xbe123683	-0.14278607
222	0x3d31d693	0.043417525
223	0x3d4a0b69	0.049327288
224	0x3da159a6	0.07878427
225	0x3d931e38	0.07183498
226	0x3d193f62	0.037413962
227	0x3de3192d	0.11088786
228	0x3db1d00d	0.08682261
229	0x3df13480	0.11777592
230	0x3ecfe376	0.40603226
231	0xbe0a8b4e	-0.13529703
232	0x3db560d5	0.0885636
233	0xbe0f1ca6	-0.13975772
234	0xbb5710a5	-0.0032816317
235	0xbd9fc207	-0.0780068
236	0x3d6af681	0.05736399
237	0xbda32347	-0.07965713
238	0xbcc49b3a	-0.023999799
239	0x3e83b2ba	0.25722295
240	0x3c78b78e	0.015180482
241	0xbcb2584e	-0.021770623
242	0x3d95507a	0.0729074
243	0x3ea38f72	0.31945378
244	0x3de8948c	0.11356458
245	0x3d83dfeb	0.06439193
246	0xbe568d6c	-0.20952386
247	0xbe25d1fa	-0.16193381
248	0xbe82592c	-0.25458658
249	0xbe4149df	-0.18875836
250	0xbe767b81	-0.2407055
251	0x3d992301	0.074773796
252	0xbe3b23ec	-0.18275422
253	0x3caf16ee	0.021373238
254	0x3dd50d80	0.104029655
255	0x3f075436	0.5286287

layers.0.process.0.weight f4 [64, 20]
0	0xbdfb9c89	-0.12285716
1	0xbe417241	-0.1889124
2	0xbc465b70	-0.012106761
3	0xbe1eaff8	-0.15496814
4	0x3e29f4b4	0.16597253
5	0x3e495bfc	0.19663996
6	0x3e5aed6a	0.21379629
7	0xbd40a3e4	-0.0470313
8	0xbe4936d6	-0.19649825
9	0x3e3722aa	0.17884317
10	0xbe5a9300	-0.21345139
11	0xbd4524b8	-0.04813072
12	0x3e253d0e	0.16136572
13	0xbe4c7cc6	-0.19969472
14	0x3e601be6	0.21885642
15	0xbe25b0ec	-0.16180772
16	0x3da10328	0.0786193
17	0x3e4527fe	0.19253537
18	0xbd30b350	-0.043139756
19	0x3d9fea8c	0.07808408
20	0x3da22af8	0.07918352
21	0xbcfd8168	-0.030945495
22	0xbd20d054	-0.039261177
23	0xbe60cd80	-0.21953392
24	0xbcd2dd78	-0.02574037
25	0xbd81e98a	-0.06343372
26	0x3e4576ba	0.19283572
27	0xbe26a7d9	-0.16274966
28	0xbdc54ed6	-0.096341774
29	0x3e40d578	0.18831432
30	0xbda6473e	-0.08119057
31	0x3d4fefd0	0.050765812
32	0xbd9b65d8	-0.075877845
33	0xbd802598	-0.062571704
34	0xbdf4e218	-0.119571865
35	0xbe004cee	-0.12529346
36	0xbdde0dcb	-0.108424746
37	0x3dbf1014	0.093292385
38	0x3e1e4bd6	0.15458617
39	0xbcc72e10	-0.024313956
40	0x3db08860	0.086197615
41	0x3d43f798	0.047843546
42	0xbe493c6a	-0.19651952
43	0x3e17fbcc	0.14842147
44	0xbdf5f219	-0.12009067
45	0x3e623f22	0.22094396
46	0xbc1ee670	-0.009698495
47	0x3a86f980	0.0010297745
48	0xbd942e0a	-0.07235344
49	0xbdb7959e	-0.08964084
50	0x3e39525a	0.18097821
51	0xbd87bab8	-0.06627411
52	0x3da4db10	0.08049595
53	0xbd51eff4	-0.051254228
54	0x3e13a11e	0.1441693
55	0x3df6a720	0.12043595
56	0xbdbd62e0	-0.092473745
57	0x3e10afd2	0.1412957
58	0xbe3daff1	-0.18524148
59	0xbb0c0600	-0.002136588
60	0x3d87c294	0.0662891
61	0x3d1c8fb0	0.03822297
62	0xbe301d10	-0.17198586
63	0x3d923b20	0.071401834
64	0x3e10018c	0.1406309
65	0xbe586738	-0.21133125
66	0xbd84d6ae	-0.064862594
67	0xbe228830	-0.15872264
68	0x3defd204	0.11709979
69	0xbe31402f	-0.1730964
70	0xbd303160	-0.043015838
71	0xbda24f5e	-0.07925294
72	0xbdd7f5cd	-0.1054493
73	0xbdcc9af5	-0.09990493
74	0x3e44529c	0.19172138
75	0xbd85cc98	-0.06533164
76	0xbd189074	-0.037247136
77	0x3e5ad2cc	0.21369475
78	0xbc159f80	-0.009132266
79	0x3d5ca2a8	0.05386606
80	0x3e18c2a8	0.14918005
81	0x3dde0c28	0.10842162
82	0x3df0c704	0.11756709
83	0x3e4dfc58	0.20115793
84	0xbe198f33	-0.14996032
85	0xbe33665e	-0.17519519
86	0x3db00c14	0.08596054
87	0xbdfd78cb	-0.12376555
88	0x3e1fbc4a	0.1559917
89	0x3e102962	0.14078286
90	0xbd516dd0	-0.051130116
91	0xbe42c661	-0.19020988
92	0xbbc7df80	-0.0060996413
93	0xbd2653e0	-0.040607333
94	0xbca46180	-0.020066023
95	0x3e2901b8	0.16504562
96	0x3e585a3c	0.21128172
97	0x3e0144b4	0.12623864
98	0xbe58650a	-0.21132293
99	0x3d15f930	0.036614597
100	0x3e5af632	0.21382979
101	0xbd245528	-0.040120274
102	0xbe5cf7d3	-0.21578912
103	0x3e2e9cd2	0.1705201
104	0x3e41c21a	0.189217
105	0x3e1a3a50	0.15061307
106	0x3e6421ca	0.22278515
107	0xbdd56baa	-0.10420926
108	0xbe508b57	-0.20365654
109	0xbe4d3a71	-0.20041825
110	0x3e23a56a	0.15981069
111	0x3e10f9b4	0.14157754
112	0x3e3d9ed6	0.18517622
113	0x3d81f140	0.06344843
114	0xbd49986c	-0.049217626
115	0xbe0be47c	-0.13661379
116	0x3e32efe0	0.17474318
117	0xbe04c1ee	-0.12964603
118	0xbdbeeb98	-0.0932228
119	0xbbe7e280	-0.0070765615
120	0x3e499b48	0.19688141
121	0x3abbd480	0.0014330298
122	0xbe166f6c	-0.14690942
123	0xbd76464c	-0.060125634
124	0xbe4c0dd3	-0.19927149
125	0xbe638778	-0.22219646
126	0xbe35aa14	-0.17740661
127	0x3e58bea0	0.21166468
128	0x3d1e5938	0.038659304
129	0xbdf0f82e	-0.117660865
130	0xbc5b5050	-0.013385847
131	0xbdb71708	-0.0893994
132	0x3d0b50f8	0.034012765
133	0x3e3aa398	0.18226469
134	0x3df9ebc8	0.12203175
135	0xbda3ea0e	-0.08003627
136	0x3d5ba438	0.053623408
137	0x3d632510	0.055455267
138	0xbe62f08a	-0.22162071
139	0xbd0500dc	-0.032471523
140	0x3e4e9b26	0.20176372
141	0x3e1951d0	0.14972615
142	0x3e04e7ca	0.12979046
143	0xbdd4965f	-0.103802435
144	0xbdae5cfa	-0.085138276
145	0xbdf88d89	-0.12136371
146	0x3d593678	0.05303046
147	0x3e0afb78	0.1357249
148	0x3d5907f0	0.052986085
149	0x3e15ce76	0.1462954
150	0x3de4c158	0.1116969
151	0x3d99686c	0.0749062
152	0x3e27bcc2	0.16380599
153	0xbdbae0d0	-0.09124911
154	0xbe50daa4	-0.20395905
155	0xbcf87fc0	-0.030334353
156	0x3d86b58c	0.06577596
157	0xbe4a39ad	-0.19748564
158	0x3da0a3e0	0.07843757
159	0xbdc2f234	-0.09518853
160	0x3e32b392	0.17451313
161	0xbd17f300	-0.037096977
162	0x3c949190	0.018135816
163	0xbd0e9ba4	-0.0348164
164	0xbe33da63	-0.17563777
165	0x3d8ce780	0.068800926
166	0xbe3971a1	-0.18109752
167	0xbe5cc60f	-0.21559928
168	0xbc25c920	-0.010118753
169	0xbdf42021	-0.119201906
170	0xbcd90940	-0.026493669
171	0xbd42d06c	-0.047562048
172	0xbdbbcfc8	-0.091704905
173	0x3e02d022	0.12774709
174	0xbddff9d7	-0.10936325
175	0x3e2e4306	0.17017755
176	0xbd92084a	-0.07130487
177	0xbc1b51c0	-0.00947994
178	0x3d87ac3c	0.06624648
179	0x3d8d5034	0.06900063
180	0xbe1967dc	-0.14981025
181	0xbddb6477	-0.107125215
182	0xbdc797b8	-0.09745735
183	0x3e26855e	0.16261813
184	0x3e3b42be	0.18287179
185	0x3e1c7946	0.15280637
186	0x3d4a46f0	0.049384058
187	0xbd8eb44a	-0.06967981
188	0xbe49761a	-0.19673958
189	0xbdc6cfb4	-0.09707585
190	0x3d169b28	0.036769062
191	0xbd90f492	-0.07077898
192	0xbb1ca840	-0.0023903996
193	0x3e38394a	0.17990604
194	0xbdd9c858	-0.10633916
195	0xbd024d78	-0.03181216
196	0xbdc72102	-0.097230926
197	0xbe5358f6	-0.20639405
198	0xbe0fcf6d	-0.1404397
199	0xbd5b7780	-0.05358076
200	0xbe1fe2e9	-0.15613903
201	0xbd9f9f9c	-0.07794115
202	0x3a9b4600	0.0011846423
203	0x3e4c0486	0.199236
204	0x3d547c50	0.051876366
205	0x3e568702	0.20949939
206	0x3d8376b0	0.06419122
207	0x3d0cb8a8	0.03435579
208	0xbd869934	-0.0657219
209	0xbd9bc650	-0.076061845
210	0x3dd32ac8	0.10310894
211	0xbe3b33b0	-0.18281436
212	0xbe37b992	-0.17941883
213	0x3dd7b808	0.10533148
214	0xbe241aa8	-0.16025794
215	0x3d7a4f38	0.061110705
216	0x3e1bda40	0.15219975
217	0xbe04e29c	-0.1297707
218	0xbe4deb22	-0.20109227
219	0x3e54674a	0.20742527
220	0x3dffa04c	0.12481746
221	0x3e627e40	0.22118473
222	0xbe3f935f	-0.18708561
223	0x3e1453f2	0.14485148
224	0x3e23cdc8	0.15996468
225	0x3d6ed988	0.058312923
226	0xbe4f5669	-0.20247807
227	0x3e40950a	0.18806854
228	0xbd72d228	-0.059282452
229	0x3deaecb8	0.11470932
230	0x3e52b14c	0.20575446
231	0xbe376ade	-0.1791186
232	0xbd878ea4	-0.066190034
233	0xbdeff3f6	-0.11716454
234	0x3ddf8cf0	0.109155536
235	0x3e51877c	0.2046184
236	0x3e389664	0.1802612
237	0x3e5f72a2	0.21821073
238	0x3d7eaf18	0.0621787
239	0x3e22d45a	0.15901318
240	0x3d91afac	0.07113585
241	0x3d97e9f4	0.0741767
242	0xbdec168a	-0.115277365
243	0xbe218dfe	-0.15776822
244	0x3e161552	0.1465657
245	0x3e550c6a	0.20805517
246	0x3d1eb2b0	0.03874463
247	0x3e619f54	0.22033435
248	0xbd96181a	-0.07328816
249	0xbda0abf8	-0.078453004
250	0xbe3033c4	-0.17207247
251	0xbdac40c2	-0.08410789
252	0xbbe45dc0	-0.0069691837
253	0xbe05b4aa	-0.13057199
254	0xbd18f898	-0.037346452
255	0x3d5058e8	0.050866038

layers.0.process.0.bias f4 [64]
0	0xbe10f155	-0.14154561
1	0xbe34cc07	-0.17655955
2	0x3e2a60ee	0.16638538
3	0xbde86a66	-0.11348419
4	0xbe1c6dfa	-0.15276328
5	0x3e0ea474	0.13929921
6	0x3d3f1cf0	0.046658456
7	0xbde841ad	-0.11340652
8	0x3e2bfa34	0.16794664
9	0xbdf5055e	-0.11963914
10	0xbe397b8c	-0.18113536
11	0xbe479dbe	-0.19493768
12	0xbe319360	-0.17341375
13	0xbd80a12c	-0.06280741
14	0xbd85f5c4	-0.06541017
15	0xbe5526f4	-0.2081564
16	0x3c0397d0	0.0080318
17	0xbe101fd4	-0.14074641
18	0x3e285bc2	0.16441253
19	0xbcb9d980	-0.02268672
20	0x3d053658	0.03252253
21	0xbe2ff034	-0.17181474
22	0x3e61c012	0.22045925
23	0x3e2b4596	0.16725764
24	0xbe103ea1	-0.14086391
25	0xbdc94064	-0.09826735
26	0xbc8a8d10	-0.016912967
27	0x3dbfec64	0.0937126
28	0xbe0a4304	-0.13502127
29	0x3cb8b198	0.02254562
30	0xbe5a4e8e	-0.21319029
31	0xbe1d88dc	-0.15384239
32	0xbd16383c	-0.036674723
33	0xbe11a8f1	-0.14224602
34	0xbe1f5c44	-0.1556254
35	0x3e29c1d4	0.16577846
36	0xbd1035a0	-0.03520739
37	0x3c7d8e20	0.01547578
38	0xbd889df6	-0.06670754
39	0x3e418a18	0.18900335
40	0x3cd3ad60	0.025839508
41	0xbd501dd0	-0.05080968
42	0x3db23b70	0.08702743
43	0x3e1c9912	0.15292767
44	0xbe2479de	-0.16062114
45	0xbe461f53	-0.19347887
46	0xbe452523	-0.19252448
47	0x3d43d300	0.047808647
48	0x3e459a14	0.19297057
49	0xbd807c64	-0.06273726
50	0x3b6d8480	0.0036242306
51	0x3e6012f0	0.21882224
52	0x3e4b266e	0.19838879
53	0x3dde6248	0.108585894
54	0x3debdeec	0.11517128
55	0x3be97c80	0.0071254373
56	0xbd83c998	-0.06434935
57	0x3e35d9ce	0.17758867
58	0x3e56b51c	0.20967525
59	0x3e0de790	0.13857865
60	0xbd5b0028	-0.053466946
61	0x3c802a38	0.015645131
62	0xbe5e06c6	-0.21682271
63	0x3e25f6de	0.16207454

layers.0.pattern_attention.weight f4 [8, 64]
0	0x3d0cbee0	0.03436172
1	0x3c5e66a0	0.013574272
2	0x3dced26e	0.1009873
3	0xbc5b7e80	-0.013396859
4	0x3dbf4cd8	0.09340829
5	0x3debf822	0.11521937
6	0xbd094e54	-0.033521965
7	0x3dc00dcc	0.093776315
8	0xbc6806f0	-0.01416181
9	0x3dce6890	0.100785375
10	0x3dc15ace	0.09441148
11	0xbb4d34c0	-0.003131196
12	0x3ab2dd80	0.0013646334
13	0xbc458fd0	-0.012058213
14	0xbd82d852	-0.06388916
15	0x3d91db30	0.07121885
16	0x3d7e5a94	0.0620981
17	0xbbab13a0	-0.0052208453
18	0x3d99abe4	0.07503489
19	0x3d8e9566	0.06962089
20	0xbdb81468	-0.08988267
21	0x3db40586	0.08790116
22	0xbd046f68	-0.032332808
23	0xbbb32760	-0.0054673404
24	0x3d008534	0.031377032
25	0xbdfde102	-0.123964325
26	0x3cc23f78	0.023711905
27	0x3c600bd0	0.013674691
28	0x3dee4188	0.11633593
29	0x3dfaaf2c	0.12240443
30	0x3c824d30	0.015905946
31	0x3dc42460	0.095772505
32	0x3d8b2e3a	0.067959264
33	0x3cc6cea0	0.024268448
34	0xbd93f0c8	-0.0722366
35	0x3c4705e0	0.012147397
36	0x3d494138	0.049134463
37	0xbd20f0dc	-0.0392922
38	0xbb5e3580	-0.00339064
39	0x3bca7520	0.006178513
40	0x3de927e0	0.11384559
41	0x3b148e80	0.0022667944
42	0x3d59c2fc	0.053164467
43	0xbdf7a10c	-0.12091264
44	0x3d884c56	0.06655185
45	0xbd4f24ec	-0.05057232
46	0xbdb781ec	-0.089603275
47	0x3d9b4f7c	0.0758352
48	0xbdb2b3b6	-0.087256834
49	0xbd95c396	-0.07312696
50	0xbde801d8	-0.11328477
51	0xbd4baf1c	-0.049727544
52	0xbdeb4c20	-0.11489129
53	0xbd8d08e4	-0.068864614
54	0x3df0d85a	0.11760016
55	0x3da96bb2	0.082724944
56	0x3d89e14e	0.067324266
57	0xbd8930cc	-0.066987604
58	0xbd9cde5a	-0.07659598
59	0xbdd50c14	-0.10402694
60	0xbcb12488	-0.021623865
61	0x3c2204c0	0.009888828
62	0xbdccf194	-0.10007015
63	0x3c969050	0.01837936
64	0xbd8fbc40	-0.07018328
65	0x3dfd7ee8	0.12377721
66	0xbc1159d0	-0.008871511
67	0x3db9a776	0.09065144
68	0xbdcfd6de	-0.101484045
69	0x3c6af970	0.014341697
70	0xbdfacf60	-0.12246585
71	0x3db5f9d0	0.088855386
72	0xbde1acec	-0.1101931
73	0x3c574420	0.013138801
74	0xbcd5e248	-0.026108876
75	0x3d89af30	0.067228675
76	0xbd609228	-0.054826885
77	0x3b81d5e0	0.0039622635
78	0x3d54093c	0.05176662
79	0x3d85b61e	0.06528877
80	0x3d867ec6	0.06567149
81	0xbc09ee60	-0.008418649
82	0xbd6ee514	-0.058323935
83	0x3aa43f80	0.0012531132
84	0x3df6fe04	0.120601684
85	0x3dea9fdc	0.11456272
86	0x3d0034e8	0.031300455
87	0x3ce0c248	0.02743639
88	0xbd975be0	-0.07390571
89	0x3db2cb0c	0.08730134
90	0x3d02033c	0.031741366
91	0x3c5b1f60	0.01337418
92	0x3da6a86e	0.08137594
93	0xbdb7fff4	-0.08984366
94	0x3c201c30	0.009772345
95	0xbdf3f0ca	-0.11911161
96	0xbc6306d0	-0.013856605
97	0x3c1f70d0	0.009731486
98	0x3c81e1c8	0.015854731
99	0xbd2dbebc	-0.042418227
100	0xbd255870	-0.040367544
101	0x3df85fbc	0.12127635
102	0xbdbbf20c	-0.09177026
103	0xbdcae3c4	-0.09906724
104	0xbd9ff140	-0.07809687
105	0x3d308bbc	0.04310201
106	0xbd9e5f06	-0.07732968
107	0xbd3a4f3c	-0.04548572
108	0x3d72a5ac	0.05924003
109	0xbddee114	-0.10882774
110	0xbd980984	-0.0742369
111	0x3d583320	0.05278313
112	0x3d6ae328	0.05734554
113	0x3da66df6	0.08126442
114	0x3dffa79e	0.12483142
115	0xba81f280	-0.000991419
116	0x3d972048	0.07379204
117	0x3c5bf370	0.013424739
118	0xbdf54e0e	-0.119777784
119	0x3df145be	0.117808804
120	0xbd0e88e8	-0.034798533
121	0x3d4c4e34	0.049879268
122	0xba820100	-0.0009918511
123	0x3d8f3e08	0.069942534
124	0xbc0fa300	-0.00876689
125	0xbd61c7a4	-0.055122033
126	0x3dfefd82	0.124506965
127	0xbdf5b2d2	-0.11996998
128	0x3a6dd200	0.0009072125
129	0x3ac8a100	0.0015306771
130	0xbddd3d92	-0.10802759
131	0x3dd66aba	0.10469575
132	0x3cabd5d8	0.020975992
133	0xbddccfee	-0.10781847
134	0xbdb18c34	-0.0866932
135	0xbda4985e	-0.08036874
136	0x3da8b6f2	0.08238019
137	0x3db57824	0.08860806
138	0x3d1f8d4c	0.03895311
139	0x3d15c98c	0.036569163
140	0x3d10efbc	0.03538488
141	0xbd8ab0e8	-0.067720234
142	0x3d55c9b8	0.052194327
143	0x3df1c766	0.1180561
144	0xbdecb372	-0.11557664
145	0xbce81ff8	-0.028335556
146	0x3d6d08e8	0.05786982
147	0xbc2d5000	-0.0105781555
148	0xb9d8c600	-0.00041346252
149	0x3ddcbe86	0.10778527
150	0xbc220530	-0.009888932
151	0xbddc3230	-0.1075176
152	0x3d2bb3b0	0.04191941
153	0x3dd5c0d8	0.10437173
154	0xbdb05838	-0.086105764
155	0xbdcbf5a4	-0.099589616
156	0xbcf29d68	-0.029616073
157	0x3d363144	0.044480577
158	0xbd2a6e98	-0.041609377
159	0x3d9707ee	0.07374559
160	0xbd283568	-0.041066557
161	0x3d73d2b8	0.05952713
162	0x3da9fc60	0.0830009
163	0x3daac7da	0.083389
164	0x3de0df2c	0.10980067
165	0xbc9c15e0	-0.0190534
166	0xbd6c4784	-0.05768539
167	0x3daf236e	0.085516796
168	0xbdd78a2e	-0.105244026
169	0x3c8d5ad8	0.017255232
170	0xbca249b0	-0.019810528
171	0x3d910e68	0.07082826
172	0xbd82c31a	-0.06384869
173	0x3d63ea34	0.055643275
174	0x3de82bfe	0.11336516
175	0x3de17c20	0.11010003
176	0x3dee4400	0.11634064
177	0x3d9b43ae	0.07581268
178	0x3dd667e2	0.10469033
179	0x3ced4998	0.028965756
180	0xbd507188	-0.05088952
181	0xbdfba240	-0.12286806
182	0x3de7d1b2	0.11319293
183	0xbd0d6a04	-0.034524933
184	0x3c74fab0	0.014952347
185	0xbdc00fce	-0.093780145
186	0xbdde8408	-0.10865027
187	0xbd558f30	-0.052138507
188	0x3de3e072	0.11126794
189	0xbd4ba438	-0.049717158
190	0x3dd9c628	0.106334984
191	0x3d601a44	0.05471255
192	0x3d7d4ad4	0.06183894
193	0xbd573e68	-0.05254975
194	0xbdf46882	-0.11933996
195	0x3d6f9aa0	0.05849707
196	0xbcf75e78	-0.030196413
197	0xbd8652fa	-0.06558795
198	0xbdcfd57e	-0.10148142
199	0x3d760124	0.06005968
200	0xba4e4800	-0.0007869005
201	0x3de58c3c	0.11208388
202	0x3dbcb55e	0.092142805
203	0xbd8918ca	-0.06694181
204	0x3cd0fe58	0.025511906
205	0x3dddcf24	0.108305246
206	0xbdf89e48	-0.12139565
207	0x3d93429a	0.071904376
208	0xbcb8d418	-0.022562072
209	0xbddf8c30	-0.109154105
210	0x3d783aa8	0.060602814
211	0xbcc58c80	-0.024114847
212	0x3db6ceb8	0.08926147
213	0x3af8a100	0.001896888
214	0x3daf41f0	0.085574985
215	0xbd01e740	-0.031714678
216	0xbd2c60a8	-0.042084366
217	0xbdbec814	-0.093155056
218	0x3cdb6550	0.026781708
219	0x3dfb6348	0.12274796
220	0xbd896918	-0.06709498
221	0x3d6f2520	0.058385015
222	0xbd83a2ce	-0.06427537
223	0x3c588f50	0.013217762
224	0xbd31fcb8	-0.043453902
225	0xbd16ecc0	-0.036846876
226	0xbd920b68	-0.07131082
227	0x3d52e1a4	0.05148472
228	0x3dc74ca4	0.09731415
229	0xbd94d41e	-0.07267021
230	0xbd8d7430	-0.06906927
231	0x3d2f0790	0.04273182
232	0xbdc4728a	-0.09592159
233	0xbdf3a630	-0.11896932
234	0xbc8ad870	-0.016948909
235	0x3d6617f0	0.056175172
236	0xbdeddc38	-0.11614269
237	0xbdc2b6c2	-0.095075145
238	0xbdc0da60	-0.09416652
239	0x3d5e3024	0.05424513
240	0x3dabe47c	0.08393189
241	0x3daac3d4	0.083381325
242	0x3cd4bf68	0.025970176
243	0xbd1bc760	-0.038031936
244	0xbd4924bc	-0.0491073
245	0xbd8c2f42	-0.06844951
246	0xbde77044	-0.1130071
247	0xbda458cc	-0.08024749
248	0xbdd6791c	-0.104723185
249	0xbc867770	-0.016414374
250	0x3ddc6794	0.107619435
251	0xbddfac0e	-0.10921489
252	0x3defba30	0.11705434
253	0xbdc3e55c	-0.09565231
254	0x3dda80d4	0.10669103
255	0x3bc52360	0.00601618

layers.0.pattern_attention.bias f4 [8]
0	0x3da20654	0.07911363
1	0x3db02d94	0.08602443
2	0x3de88960	0.11354327
3	0x3ccc3d90	0.024931699
4	0x3d69917c	0.05702351
5	0xbc7e5c20	-0.015524894
6	0x3db29782	0.08720304
7	0x3de91c90	0.11382401

layers.0.next_pattern_attention.weight f4 [8, 64]
0	0x3d63a0d0	0.055573285
1	0x3d940f9c	0.0722954
2	0xbd929ede	-0.07159208
3	0xbba79c20	-0.005115047
4	0xbdf067ca	-0.11738546
5	0xbd652028	-0.05593887
6	0xbdd5e5c2	-0.104442134
7	0x3ccc4bb8	0.02493845
8	0x3d71b5c0	0.05901122
9	0xbd92ce14	-0.071682125
10	0xbdbd6976	-0.09248631
11	0xbbc21dc0	-0.0059239566
12	0x3d37daf0	0.04488653
13	0x3d12a1f4	0.03579898
14	0x3dfa873e	0.12232827
15	0xbdac9edc	-0.084287375
16	0xbd6fa450	-0.05850631
17	0x3d0872f4	0.033312753
18	0xbd24f8a0	-0.04027617
19	0xbd806112	-0.06268515
20	0x3ca4f5d0	0.020136744
21	0xbda6ebc6	-0.08150439
22	0x3c8043f8	0.01565741
23	0xbdf33b6c	-0.11876568
24	0x3db3b432	0.08774604
25	0xbc8970c0	-0.016777396
26	0xbdd15e14	-0.10223022
27	0xbd79c4b8	-0.06097862
28	0x397bf400	0.00024028122
29	0x3d55a230	0.052156627
30	0x3df81734	0.12113801
31	0xbdf3e2d4	-0.119084984
32	0x3d999e3c	0.07500884
33	0xbd2435c8	-0.040090352
34	0xbdd0ceb0	-0.101956725
35	0x3db350ce	0.08755647
36	0x3d21c1fc	0.03949164
37	0xbdf931c4	-0.12167695
38	0x3d060b9c	0.032725915
39	0xbc6840e0	-0.014175624
40	0x3db0c88e	0.08632003
41	0x3ddef5a4	0.10886696
42	0x3da66088	0.081238806
43	0xbd4e90bc	-0.050431
44	0xbde40f82	-0.111357704
45	0xbd7338a4	-0.05938019
46	0xbd1ea428	-0.03873077
47	0x3be75ce0	0.007060632
48	0x3d27c5dc	0.040960178
49	0xbdd10662	-0.102062955
50	0x3df9b156	0.12192027
51	0xbdd14e12	-0.10219969
52	0xbd9ef4d6	-0.077615425
53	0x3da3b896	0.07994191
54	0x3ce80380	0.028321981
55	0x3ac3b880	0.0014932305
56	0xbd84eb3a	-0.064901784
57	0x3c561540	0.01306659
58	0x3d8fceee	0.070218906
59	0x3ccdd208	0.025124565
60	0xbd984028	-0.07434112
61	0xbc7b33c0	-0.015332162
62	0x3dca5c7e	0.09880923
63	0xbb35d9c0	-0.0027748197
64	0x3dc88f88	0.097930014
65	0x3dd126b4	0.1021246
66	0x3d26fa14	0.040765837
67	0xbcbb0688	-0.022830263
68	0x3c50b260	0.01273784
69	0xbd44ac10	-0.048015654
70	0xbb5d9900	-0.003381312
71	0xbdc071e2	-0.093967214
72	0xbd9f9492	-0.077920094
73	0xbdb11a16	-0.086475536
74	0x3ca01d38	0.019545183
75	0x3dcba46e	0.09943472
76	0xbde3584a	-0.11100824
77	0xbd6fedd0	-0.058576405
78	0xbbdd6fa0	-0.0067576915
79	0x3d6b7dc4	0.057492986
80	0xba3c6200	-0.0007186234
81	0xbd2e82e8	-0.04260531
82	0x3df5e8b4	0.12007275
83	0xbdcf66bc	-0.10127017
84	0x3df4fa86	0.11961846
85	0xbc20f560	-0.009824127
86	0x3d78b090	0.060715258
87	0xbd241b80	-0.04006529
88	0x3ded5616	0.11588685
89	0xbdf9a248	-0.12189156
90	0x3c6cbba0	0.01444903
91	0xbd54afac	-0.051925346
92	0x3d4af1ac	0.049546883
93	0xbdd85862	-0.10563733
94	0xbcdbe490	-0.026842386
95	0xbdc0aaae	-0.094075546
96	0x3df1cfae	0.1180719
97	0xbce42dc8	-0.027853861
98	0x3cb10cd8	0.02161257
99	0x3d111b44	0.035426393
100	0xbd9766a2	-0.073926225
101	0xbdec875a	-0.11549254
102	0x3d76ecf0	0.060284555
103	0xbd5d324c	-0.054003045
104	0xbdeacf90	-0.11465371
105	0xbd9864de	-0.07441114
106	0xbd11a104	-0.035553947
107	0xbdef92ee	-0.116979465
108	0x3d05d1fc	0.03267096
109	0xbdbe986a	-0.093064144
110	0x3cce10c8	0.025154486
111	0x3d7533f0	0.059863985
112	0x3d980218	0.07422274
113	0x3cef8c98	0.029241845
114	0x3d135d40	0.035977602
115	0xbda5a874	-0.080887705
116	0x3dd297a8	0.102828324
117	0xbdd68f8e	-0.104766
118	0xbdd9d5f4	-0.106365114
119	0x3d85320e	0.06503688
120	0x3d35cb98	0.044383615
121	0xbd1f7a18	-0.038934797
122	0xb9b88800	-0.00035196543
123	0x3d23f5d0	0.040029347
124	0xbd2fc9f8	-0.04291722
125	0x3dc00c3e	0.09377335
126	0x3c5dded0	0.013541892
127	0x3d86cae0	0.06581664
128	0xbdccf028	-0.10006744
129	0xbca3bd98	-0.019987866
130	0x3d9ce4d8	0.07660836
131	0x3dbcdb50	0.09221518
132	0xbd429964	-0.047509566
133	0xbd9fe462	-0.078072324
134	0xbd82bf96	-0.06384198
135	0x3caaac28	0.020834044
136	0x3da6e19e	0.08148502
137	0x3da64d30	0.08120191
138	0x3db66086	0.08905129
139	0x3cd3ed70	0.025870055
140	0x3d91dc38	0.071220815
141	0x3df5950c	0.11991319
142	0x3b34b340	0.0027572662
143	0xbd5a9010	-0.053360045
144	0xbdd8333a	-0.10556646
145	0xbd3fb320	-0.046801686
146	0x3dbf0c8a	0.093285635
147	0x3d89d7a4	0.06730583
148	0x3c3ebcf0	0.011641726
149	0xbdb06864	-0.08613661
150	0xbda44cba	-0.08022447
151	0xbb402000	-0.0029315948
152	0xbd93472e	-0.07191311
153	0x3da581da	0.08081408
154	0x3dd5343e	0.10410355
155	0x3dd71e48	0.105038226
156	0x3d5b02c4	0.053469434
157	0xbd5d87e0	-0.05408466
158	0x3b92eb40	0.0044836104
159	0xbc8d45f0	-0.017245263
160	0x3d9034f8	0.07041353
161	0xbc80ddc8	-0.015730754
162	0xbddc2734	-0.10749665
163	0xbcc941f8	-0.02456759
164	0x3d9e21aa	0.07721265
165	0xbd8a9e38	-0.06768459
166	0xbd2182a0	-0.039431214
167	0x3db72bb8	0.089438856
168	0x3d88fef4	0.066892534
169	0xbd8019fc	-0.06254956
170	0xbd5ea028	-0.054351956
171	0xbd2b1014	-0.04176338
172	0x3b7294c0	0.0037014931
173	0x3d7fde5c	0.062467918
174	0x3b81d040	0.003961593
175	0xbd4657b4	-0.048423484
176	0x3db9c8f4	0.09071532
177	0x3dd9bbba	0.10631509
178	0x3df0ca44	0.11757329
179	0x3c936298	0.01799135
180	0xbdedab38	-0.11604923
181	0xbde8c94a	-0.11366518
182	0xbd5f4c3c	-0.054516062
183	0x3da7fc36	0.08202402
184	0x3d3ed248	0.04658726
185	0xbd6a906c	-0.057266638
186	0xbca48e30	-0.020087332
187	0x3dc2e318	0.09515971
188	0x3dfe1420	0.12406182
189	0x3d76216c	0.060090467
190	0xbdb79030	-0.089630485
191	0xbd9c022c	-0.07617602
192	0x3dba8490	0.091073155
193	0x3d2b35e0	0.041799426
194	0x3bd2b940	0.006430775
195	0xbdd654c8	-0.104653895
196	0x3dccccd8	0.10000008
197	0xbdee3d64	-0.11632803
198	0xbdaa3528	-0.0831092
199	0xbc51bee0	-0.012801856
200	0x3d42d43c	0.047565684
201	0x3c0adc50	0.008475378
202	0xbda82156	-0.08209483
203	0x3d533eb8	0.051573485
204	0x3d07390c	0.03301339
205	0xbd7824e4	-0.060582057
206	0xbd65c1d8	-0.056093067
207	0x3b402b40	0.0029322654
208	0x3dcbb1d2	0.09946026
209	0x3bc48c00	0.0059981346
210	0xbdc6c100	-0.097047806
211	0x3cfdf788	0.031001821
212	0x3d8bad28	0.06820136
213	0x3df53c7c	0.11974427
214	0xbd6bb6b0	-0.05754727
215	0xbdd75f58	-0.10516232
216	0xbd8873d4	-0.066627175
217	0xbd9c24a8	-0.07624179
218	0xbdcb275a	-0.09919615
219	0x3cae1100	0.02124834
220	0xbd095d20	-0.033536077
221	0x3d18e520	0.037327886
222	0x3c06ce20	0.008227855
223	0xbd0b3c3c	-0.03399299
224	0xbdf8b4ee	-0.121438846
225	0xbd9a08d6	-0.075212166
226	0xbd05f09c	-0.032700166
227	0x3d90d0c8	0.07071072
228	0xbdea8ac2	-0.11452247
229	0xbded6524	-0.11591557
230	0xbdb8618a	-0.09002979
231	0xbd2f7e00	-0.042844772
232	0xbcc7e350	-0.024400383
233	0x3de91048	0.113800585
234	0xbdc1bb28	-0.09459525
235	0x3c734be0	0.014849633
236	0x3d1bd100	0.038041115
237	0x3bece640	0.0072295964
238	0xbda16c56	-0.078819916
239	0x3d0d2850	0.034462273
240	0xbc370150	-0.0111697465
241	0x3d9897c0	0.07450819
242	0xb95fa000	-0.00021326542
243	0x3d92d8cc	0.07170257
244	0x3dd0f27a	0.10202499
245	0x3d6c9bcc	0.057765767
246	0xba8a1d80	-0.0010537356
247	0x3d23044c	0.03979902
248	0x3dd70014	0.10498062
249	0xbb901780	-0.0043973327
250	0xbd81c7e0	-0.06336951
251	0xbdf957b2	-0.1217493
252	0xbc69e6f0	-0.014276251
253	0xbd92daf0	-0.07170665
254	0x3dc9f33a	0.09860845
255	0x3dfe35f0	0.124126315

layers.0.next_pattern_attention.bias f4 [8]
0	0xbcf91ce8	-0.030409291
1	0xbdad1972	-0.08452119
2	0x3c44aec0	0.012004554
3	0xbd2b04fc	-0.0417528
4	0x3cf40228	0.029786184
5	0xbc558ec0	-0.0130345225
6	0xbdb71b22	-0.08940722
7	0xbd2ab544	-0.041676775

layers.0.to_penultimate.weight f4 [32, 64]
0	0x3ca3dcd8	0.020002767
1	0x3da31216	0.07962434
2	0x3c1a0760	0.009401172
3	0x3d6d7814	0.057975844
4	0xbd8d2026	-0.068908975
5	0x3dcccf6e	0.100005016
6	0x3df642a8	0.120244324
7	0x3de47150	0.11154425
8	0xbd7162ec	-0.05893223
9	0xbd247098	-0.04014644
10	0xbd822d0c	-0.06356248
11	0xbd9a695a	-0.075396255
12	0xbdeb0004	-0.11474612
13	0x3dc82b68	0.09773904
14	0x3de82986	0.11336045
15	0xbc0871b0	-0.008327886
16	0xbd2476b4	-0.040152267
17	0x3d406048	0.04696682
18	0xbdaaa022	-0.08331324
19	0xbde9ea3e	-0.11421631
20	0xbde8db26	-0.11369924
21	0x3de69a2e	0.11259876
22	0x3dc8f200	0.09811783
23	0x3cd26710	0.02568391
24	0x3b8023c0	0.0039105117
25	0xbdda900e	-0.106720075
26	0xbdd7331c	-0.10507795
27	0xbd65eccc	-0.05613403
28	0xbd713204	-0.05888559
29	0xbc8d2a10	-0.017231971
30	0x3deb83c8	0.11499745
31	0xbdde4d7a	-0.10854621
32	0x3dadaf0a	0.08480652
33	0x3c6b1e10	0.014350429
34	0xbdb76c0e	-0.08956157
35	0x3d92fda6	0.07177286
36	0xbd56c890	-0.052437365
37	0x3ddd924c	0.108189195
38	0xbdb5c7ce	-0.08876
39	0x3dbad144	0.091219455
40	0xbb738f80	-0.003716439
41	0x3d8d311e	0.06894134
42	0xbcde16c8	-0.027110472
43	0x3d2e28cc	0.042519376
44	0x3db17b8a	0.08666141
45	0x3dea0f02	0.11428644
46	0xbdfe6b08	-0.12422758
47	0x3d9cee98	0.07662696
48	0xbdf67334	-0.12033692
49	0x3d9cef4c	0.0766283
50	0x3d3cfac0	0.04613757
51	0x3db0f9ec	0.08641419
52	0xbd9816c2	-0.07426216
53	0x3cf3b3b0	0.029748768
54	0xbdd42a04	-0.10359576
55	0x3c04c4b0	0.008103535
56	0x3d6a18f0	0.05715269
57	0x3d07916c	0.03309767
58	0x3dc04b4e	0.09389363
59	0xbc65e120	-0.014030725
60	0x3da8fb14	0.08251014
61	0xbdde990e	-0.108690366
62	0x3c4b82d0	0.012421325
63	0xbdb48400	-0.088142395
64	0xbbbe8b80	-0.0058149695
65	0xbd2b8354	-0.04187329
66	0x3df53ef6	0.119748995
67	0xbdeaadae	-0.11458908
68	0xbd923d2e	-0.07140575
69	0x3df07b2c	0.11742243
70	0xbdd5e9b2	-0.104449645
71	0xbd2c64fc	-0.042088494
72	0x3b1da640	0.0024055392
73	0x3d5baa70	0.05362934
74	0x3db43204	0.08798602
75	0x3dfbdef6	0.12298386
76	0xbd671618	-0.056417555
77	0x3df61922	0.120165125
78	0xbda7b48e	-0.08188735
79	0xbd935b2e	-0.071951255
80	0x3dfc2a10	0.1231271
81	0x3df15948	0.11784607
82	0xbd8a3706	-0.06748776
83	0x3dc3396a	0.09532435
84	0x3d5440dc	0.051819667
85	0x3b6d8640	0.003624335
86	0xbdd7d22a	-0.105381325
87	0xbd9ab328	-0.075537026
88	0x3d80378c	0.06260595
89	0x3c3040a0	0.010757595
90	0xbdd17950	-0.10228217
91	0xbddc7cd2	-0.10765995
92	0xbd81aee6	-0.06332187
93	0x3d8dee76	0.069302484
94	0x3d9a066a	0.07520755
95	0xbdb5a5da	-0.08869524
96	0xbdc90a70	-0.09816444
97	0x3d798340	0.060916185
98	0x3b8c89c0	0.004288882
99	0xbc16a600	-0.009194851
100	0xbb462080	-0.0030231774
101	0xbd0592f8	-0.032610863
102	0x3da3e74e	0.08003102
103	0x3cbd0ae8	0.02307649
104	0x3d829ae4	0.06377199
105	0x3d715b88	0.05892518
106	0xbdca2972	-0.09871186
107	0xbd98102c	-0.074249595
108	0xbdf926d8	-0.12165612
109	0xbd7234fc	-0.05913256
110	0x3db5b66e	0.08872686
111	0xbdd8f5a2	-0.10593726
112	0xbdfdc2ee	-0.123906955
113	0xbb662c80	-0.003512174
114	0x3c8fa5e0	0.01753515
115	0x3df75372	0.12076463
116	0x3c4ac3e0	0.012375802
117	0xbda54638	-0.08070034
118	0xbacb3180	-0.0015502423
119	0xbce0b310	-0.027429134
120	0x3d73af6c	0.059493467
121	0xbd72dd10	-0.059292853
122	0xbdd4f0e8	-0.10397512
123	0x3da8b19a	0.08237
124	0xbd9e30ee	-0.07724176
125	0x3dc33c78	0.09533018
126	0xbcc4e7b8	-0.024036273
127	0x3dde7820	0.10862756
128	0x3ccf3630	0.025294393
129	0xbdd8b43e	-0.105812535
130	0xbc3cc2a0	-0.011521012
131	0x3dcd4e08	0.10024649
132	0xbdd70124	-0.104982644
133	0xbda0c4dc	-0.07850048
134	0xbde8658c	-0.113474935
135	0xbd8d4c8c	-0.06899366
136	0xbcfb41b8	-0.030670986
137	0xbd367ae4	-0.04455079
138	0x3cee60a0	0.029098809
139	0xbd353768	-0.044242293
140	0x3d1fe734	0.03903885
141	0x3dcf0db6	0.10110037
142	0x3db87598	0.09006804
143	0x3db7a1a6	0.08966379
144	0xbd062784	-0.03275253
145	0xbdf32b7c	-0.11873528
146	0x3d8fdf3c	0.070250005
147	0xbc16f460	-0.009213537
148	0x3d7dc548	0.06195572
149	0x3db35d46	0.08758025
150	0x3c2113a0	0.009831339
151	0xbdc069aa	-0.09395154
152	0xbc5c5650	-0.013448313
153	0xbc37ad30	-0.011210725
154	0x3c2642f0	0.010147795
155	0xbd8a8e70	-0.06765449
156	0x3dc76cac	0.097375244
157	0x3d39b06c	0.045334265
158	0xbda22902	-0.07917978
159	0xbd572b4c	-0.052531525
160	0xbd4b172c	-0.049582645
161	0x3becc080	0.007225096
162	0x3dda2902	0.10652353
163	0x3d8e1c90	0.069390416
164	0x3d7f4bc8	0.06232813
165	0x3db5e086	0.08880715
166	0x3baab660	0.005209729
167	0x3d8883b4	0.066657454
168	0xbd35efec	-0.04441826
169	0x3dae203c	0.08502242
170	0xbd8715d6	-0.06595962
171	0x3de80934	0.1132988
172	0xbc8806e0	-0.01660484
173	0x3d7fa5d8	0.06241402
174	0xbce1aef0	-0.027549237
175	0x3dcc1eb6	0.09966795
176	0xbdbff17c	-0.09372231
177	0x3cdc14f0	0.026865453
178	0x3c374760	0.011186451
179	0xbd9d102c	-0.076691
180	0xbd0ca940	-0.034341097
181	0x3dde1350	0.10843527
182	0xbde4ee70	-0.11178291
183	0x3d40efe0	0.047103763
184	0x3c510a20	0.012758762
185	0x3b5ba4c0	0.0033514947
186	0x3d035204	0.032060638
187	0xbba46980	-0.0050174594
188	0xbdbe806e	-0.0930184
189	0x3cb3a3d8	0.021928713
190	0x3cae0f68	0.02124758
191	0xbd88984a	-0.06669672
192	0x3d873426	0.066017434
193	0x3ca14bb0	0.01968941
194	0xbce65428	-0.0281163
195	0xbc9c28f8	-0.019062504
196	0x3d2b0b38	0.041758746
197	0x3db1ddfa	0.08684917
198	0xbd37e3dc	-0.044895038
199	0xbdcb299e	-0.09920047
200	0xbca9b338	-0.020715341
201	0xbd267f14	-0.040648535
202	0xbcc5cb30	-0.024144739
203	0xbd89d880	-0.06730747
204	0xbbeeb9a0	-0.007285312
205	0x3d177f48	0.03698662
206	0x3dafc1fc	0.085819215
207	0x3daeab0a	0.08528717
208	0x3cf327e8	0.029682115
209	0x3dd407a2	0.10353018
210	0x3cd43260	0.025902927
211	0xbdb7ad0a	-0.089685515
212	0x3d667a08	0.05626872
213	0xbdad39e0	-0.084583044
214	0x3d90a7e6	0.07063274
215	0xbd1f7118	-0.038926214
216	0xbd81cc62	-0.06337811
217	0xbd100b3c	-0.035166964
218	0x3d94fdf0	0.07274997
219	0x3da51562	0.08060719
220	0xbdc82c08	-0.09774023
221	0xb9c3de00	-0.000373587
222	0x3d92967a	0.071576074
223	0xbd526328	-0.051364094
224	0x3ddfaeca	0.1092201
225	0x3dfccc42	0.123436466
226	0xbd667ff0	-0.056274354
227	0x3db20706	0.08692746
228	0x3d95f73c	0.07322547
229	0xbdb82b9c	-0.08992693
230	0xbd7c0c94	-0.061535433
231	0xbd284ef4	-0.04109092
232	0xbd89dc7c	-0.06731507
233	0x3da23922	0.079210535
234	0xbd68b974	-0.056817487
235	0xbd7b7804	-0.061393753
236	0x3a9e4380	0.001207456
237	0xbd48c294	-0.04901369
238	0xbd41312c	-0.047166035
239	0xbd8b68f4	-0.068071276
240	0xbd8673d8	-0.06565064
241	0x3d2de19c	0.042451486
242	0x3d082350	0.0332368
243	0x3dcc5742	0.099775806
244	0xbd7a6538	-0.061131686
245	0xbcc503e8	-0.024049714
246	0x3dc28b4a	0.094992235
247	0x3db69554	0.08915201
248	0x3dd4be8e	0.10387908
249	0xbbfbb920	-0.0076819807
250	0x3c5f9bf0	0.013648018
251	0xbd3cca8c	-0.0460916
252	0x3dff3f90	0.124632955
253	0xbdd5f862	-0.10447766
254	0x3d4924d8	0.049107403
255	0x3da86302	0.08222009

layers.0.to_penultimate.bias f4 [32]
0	0x3de9460c	0.113903135
1	0xbd5b73f8	-0.053577393
2	0x3da42dba	0.08016534
3	0x3cd678c0	0.026180625
4	0xbbbe54e0	-0.0058084577
5	0xbc37d610	-0.01122047
6	0xbd797a44	-0.060907617
7	0xbd81a2cc	-0.06329879
8	0xbd87a5f0	-0.06623447
9	0x3c83c968	0.016087249
10	0xbdcdc3f8	-0.10047144
11	0xbd2363b8	-0.03989002
12	0xbd8f6d9e	-0.0700333
13	0xbd2bd620	-0.041952252
14	0x3ddeaebc	0.10873172
15	0x3de7c524	0.113168985
16	0x3cdc7f58	0.026916191
17	0x3d13bb18	0.0360671
18	0x3ddb9aec	0.107229084
19	0x3ab9c980	0.0014174432
20	0xbd706004	-0.058685318
21	0x3d5e9660	0.054342628
22	0x3c2be5f0	0.010491833
23	0x3dd18076	0.1022958
24	0xbd3a30a8	-0.04545656
25	0x3ca5c278	0.020234331
26	0x3b592dc0	0.0033138841
27	0xbdcf5a0e	-0.101245984
28	0xbda7a8a8	-0.081864655
29	0xbc753d40	-0.014968216
30	0xbc8282d8	-0.015931532
31	0xbdc4db32	-0.09612121
