sandbox/pattern_analysis_outputs/analysis_20250118_132533/pattern_model.pt (torch, 55054 bytes, 31 tensors)

layers.0.pattern_dict f4 [8, 64]
0	0xbe080db3	-0.13286476
1	0x3e5fa61c	0.2184071
2	0x3dfd541b	0.123695575
3	0xbdd6d6f2	-0.10490216
4	0x3e145910	0.144871
5	0xbcaa6554	-0.02080027
6	0x3f07df43	0.53075045
7	0xbe1b11f6	-0.1514357
8	0x3e181d12	0.1485484
9	0xbe2c248d	-0.16810818
10	0xbde2a69c	-0.110669345
11	0x3e38b445	0.18037517
12	0xbdcb673c	-0.099318
13	0xbdeba929	-0.11506874
14	0x3e42b3cc	0.190139
15	0x3e6a9056	0.22906622
16	0xbcf78e4a	-0.030219216
17	0x3de28745	0.11060957
18	0x3cd1a477	0.025591118
19	0xbe074ae5	-0.13212164
20	0xbe8c8c77	-0.27450916
21	0xbcbcfd54	-0.023070015
22	0x3e91f9b7	0.2851083
23	0xbe239919	-0.15976371
24	0x3d918bde	0.07106756
25	0xbdfbdcb2	-0.12297954
26	0x3debc33a	0.11511846
27	0xbc61d2ab	-0.013783137
28	0xbe6fbc25	-0.23411615
29	0xbe11b2c7	-0.14228354
30	0x3d90bb38	0.07066959
31	0xbccb5024	-0.024818487
32	0x3dc9f6bb	0.09861513
33	0x3e06e7b1	0.13174321
34	0xbe392391	-0.18079974
35	0xbd7ed40b	-0.06221394
36	0xbe622975	-0.22086127
37	0x3decdf5d	0.11566041
38	0xbe065e27	-0.13121854
39	0x3e765f68	0.24059832
40	0x3d8d01c9	0.06885106
41	0x3e44e13a	0.19226542
42	0xbd2d4220	-0.04229939
43	0x3e3c3f1b	0.18383448
44	0xbd248bad	-0.040172268
45	0xbd35ced1	-0.04438669
46	0x3d4ce0aa	0.050018944
47	0x3df5f360	0.12009311
48	0x3ca0ffaa	0.01965316
49	0x3e946577	0.28983662
50	0xbcc65e79	-0.02421497
51	0xbd4b8068	-0.049683005
52	0xbdd55a99	-0.10417671
53	0xbbfe2164	-0.0077554453
54	0xbd12a93d	-0.03580593
55	0xbe68c327	-0.22730695
56	0xbdc84b1b	-0.0977995
57	0xbe015638	-0.12630546
58	0xbdf9b982	-0.12193586
59	0x3db53a03	0.088489555
60	0x3e2fdeec	0.17174882
61	0xbe2441e3	-0.16040759
62	0x3ccc9390	0.024972707
63	0xbe24bde1	-0.16088058
64	0xbcc91613	-0.024546659
65	0x3db23ce0	0.08703017
66	0xbccedb73	-0.025251126
67	0x3ca0b3a8	0.019616917
68	0x3d83b918	0.06431788
69	0x3d8dd931	0.069261916
70	0xbe709268	-0.2349335
71	0x3c9351a0	0.017983258
72	0x3d24db84	0.04024841
73	0xbc009048	-0.007846899
74	0xbe711627	-0.23543607
75	0x3e00d885	0.12582596
76	0x3d8e2f91	0.06942666
77	0xbb7a54ff	-0.0038197634
78	0x3c50153e	0.012700377
79	0x3dfb36f3	0.1226634
80	0x3e61208d	0.21985073
81	0xbe006da0	-0.12541819
82	0xbd63c199	-0.05560455
83	0xbcf4f744	-0.029903062
84	0x3d3f700d	0.04673772
85	0x3b334dfa	0.002735971
86	0xbd53ae93	-0.05168016
87	0x3d7881cc	0.06067066
88	0xbc22f690	-0.00994648
89	0xbb8bcaa9	-0.0042661023
90	0x3e13a2b9	0.14417543
91	0xbdb346bb	-0.08753725
92	0x3c8e862d	0.017397964
93	0x3d9b21e7	0.07574826
94	0xbe00726b	-0.12543647
95	0x3cfde7b7	0.03099428
96	0x3d4a4acb	0.049387734
97	0xbe172253	-0.14759187
98	0xbd53e08e	-0.051727824
99	0xbbf76ade	-0.0075505814
100	0xbe1f5136	-0.15558323
101	0xbe4e2ce6	-0.20134315
102	0x3c34196b	0.010992388
103	0x3d3001e1	0.042970542
104	0x3e4ecb65	0.20194776
105	0xbd51b4c4	-0.051197782
106	0xbbc29438	-0.005938079
107	0xbc0071a8	-0.007839598
108	0xbdc5c649	-0.096569605
109	0x3d090b8a	0.03345827
110	0xbe00e5c8	-0.12587655
111	0xbb850a22	-0.004060046
112	0x3dfc6810	0.12324536
113	0x3e640837	0.22268759
114	0x3de411cd	0.11136208
115	0xbd97f18d	-0.07419119
116	0xbdfd0308	-0.12354094
117	0x3d806589	0.06269366
118	0xbb29e408	-0.002592327
119	0xbdd9acc0	-0.106286526
120	0x3e7fba0b	0.24973314
121	0x3e5dac90	0.21647859
122	0xbc56ae13	-0.013103026
123	0x3dab1a32	0.08354606
124	0x3d64cd2c	0.05585973
125	0x3e2d699c	0.16934818
126	0x3e4743fc	0.19459528
127	0xbdb3a961	-0.08772541
128	0xbee441db	-0.44581494
129	0xbea72183	-0.32642755
130	0xbec1467e	-0.37749094
131	0x3ef18f43	0.47179613
132	0xbe50cb56	-0.20390067
133	0x3e8e1480	0.27750015
134	0xbe8ea491	-0.2785993
135	0xbf184b33	-0.59489745
136	0xbe38c0b9	-0.18042268
137	0x3e68b462	0.2272506
138	0x3e7fa93e	0.24966905
139	0xbee880f5	-0.45410886
140	0xbe160b5e	-0.14652774
141	0xbeb34d9e	-0.35020155
142	0xbea5446c	-0.32278764
143	0xbeb4d8ad	-0.3532156
144	0xbb7ff734	-0.0039057257
145	0x3da29892	0.07939257
146	0x3b10abea	0.0022075125
147	0x3e4f227a	0.20227996
148	0xbc38a91d	-0.0112707885
149	0x3c2e9fd8	0.010658227
150	0xbdd90059	-0.105957694
151	0xbe06bbfe	-0.13157651
152	0x3e25fbb3	0.16209297
153	0xbc982dcf	-0.01857653
154	0x3e819b5c	0.25313842
155	0x3d81de49	0.06341226
156	0xbd718adb	-0.058970314
157	0x3d005f28	0.031340748
158	0x3d6a6b30	0.05723113
159	0x3e48d43b	0.1961221
160	0xbdbf0cb5	-0.093285955
161	0xbb6b437f	-0.0035898385
162	0x3d1437cb	0.03618602
163	0x3e2961e6	0.16541252
164	0xbe009dd7	-0.12560211
165	0x3c362205	0.011116509
166	0x3e0ee1e8	0.13953364
167	0x3cbc979a	0.023021508
168	0xbdd28c46	-0.10280661
169	0xbd3a1b53	-0.045436215
170	0xbb618cac	-0.0034416122
171	0x3ddf067b	0.10889908
172	0x3d4e0bb2	0.050304122
173	0xbda8b75e	-0.082380995
174	0xbd198989	-0.03748468
175	0x3cf0d2dc	0.02939742
176	0x3e333d8e	0.1750395
177	0x3dc389ae	0.09547745
178	0x3cc3c5f4	0.023898102
179	0xbd8b34a7	-0.06797152
180	0xbe07bb98	-0.13255155
181	0x3da0a9a8	0.07844859
182	0xbd5c09c7	-0.053720262
183	0x3e150b29	0.14555039
184	0xbdbabb0e	-0.09117709
185	0x3e2ef010	0.17083764
186	0xbe64db39	-0.22349252
187	0x3cd1753e	0.0255686
188	0xbe54c095	-0.20776589
189	0xbd84da0f	-0.06486904
190	0xbd7c0022	-0.061523564
191	0x3db01732	0.08598174
192	0xbd8c1bb9	-0.06841225
193	0x3dc0c7f0	0.09413135
194	0xbd5db775	-0.054130036
195	0x3e3444b1	0.17604329
196	0x3e348a6f	0.17630933
197	0xbb2ec137	-0.0026665458
198	0xbcaec01a	-0.021331836
199	0x3b02d4d8	0.001996329
200	0xbd0b4d17	-0.034009065
201	0xbe85216b	-0.26002058
202	0xbdb44a46	-0.08803229
203	0x3c987ccc	0.018614195
204	0x3dadec26	0.08492307
205	0xbd8b544b	-0.06803187
206	0x3cb6068f	0.022219924
207	0x3d466ff9	0.04844663
208	0x3d2d5892	0.042320795
209	0x3e1198ac	0.14218396
210	0x3e3e72e3	0.18598513
211	0x3e2cca89	0.16874136
212	0xbc733fa4	-0.014846716
213	0x3d5f7125	0.054551262
214	0x3e2ad71b	0.16683619
215	0xbe0ed40b	-0.13948075
216	0x3d8d9c2d	0.06914554
217	0x3d9e1fa8	0.07720882
218	0x3d8befea	0.06832869
219	0x3e6e3906	0.2326394
220	0x3d8002e4	0.06250551
221	0x3d9f9a24	0.07793072
222	0x3d8ab603	0.06772997
223	0xbd0efb09	-0.034907375
224	0x3e0d7d33	0.13817291
225	0x3dc87a3f	0.097889416
226	0xbe10008b	-0.14062707
227	0xbe154e77	-0.14580713
228	0xbdd3c574	-0.103403956
229	0x3d0bd067	0.034134295
230	0x3db3f4bb	0.08786913
231	0x3e24f11a	0.16107598
232	0xbe31d78e	-0.17367384
233	0x3b3314bf	0.0027325598
234	0x3d935c61	0.07195354
235	0xbb8bf555	-0.004271189
236	0x3e334b7f	0.17509268
237	0x3d821005	0.06350712
238	0x3dfea4ce	0.12433778
239	0xbe912698	-0.28349757
240	0xbde73ca9	-0.11290867
241	0x3cb35655	0.021891752
242	0x3db6721f	0.089084856
243	0xbd617d2f	-0.055051025
244	0xbe1fd07c	-0.15606874
245	0x3e4f361f	0.2023549
246	0xbcdbbf9b	-0.026824763
247	0x3d790921	0.06079972
248	0x3c47447b	0.012162323
249	0xbe0e028f	-0.13868164
250	0xbe208a12	-0.1567767
251	0xbd7849aa	-0.060617127
252	0xbc7375ac	-0.014859598
253	0x3dc1b177	0.09457677
254	0xbda5cd35	-0.08095781
255	0xbe2d8078	-0.16943538

layers.0.next_pattern_dict f4 [8, 32]
0	0x3ded6d1b	0.11593076
1	0xbd1a5a39	-0.0376837
2	0xbe6da471	-0.2320726
3	0xbe0de79d	-0.13857885
4	0x3d5ddcee	0.054165773
5	0xbdecb2df	-0.115575545
6	0xbd385bfe	-0.045009606
7	0x3ce245ec	0.027621232
8	0x3e8acde5	0.2711021
9	0x3e1ce0b3	0.15320091
10	0xbdf003b4	-0.11719456
11	0x3de8e5bb	0.113719426
12	0x3e7ad182	0.24493983
13	0xbb47f135	-0.003050876
14	0x3d8d1938	0.06889576
15	0xbd93b164	-0.07211569
16	0xbd8bfc0b	-0.06835183
17	0xbdd8f33d	-0.10593269
18	0x3dc52e96	0.09628026
19	0x3e287889	0.1645223
20	0xbe4f7918	-0.20261037
21	0xbd987373	-0.07443895
22	0xbe9aa7b3	-0.3020607
23	0x3d75e7f9	0.06003568
24	0x3d07c5a9	0.033147488
25	0xbde4a6fc	-0.11164662
26	0xbd619438	-0.055072993
27	0xbe203b76	-0.15647683
28	0xbd9ba962	-0.076006666
29	0x3e3d9afa	0.1851615
30	0xbf01602c	-0.5053737
31	0xbe0f1137	-0.1397141
32	0xbe2c0140	-0.16797352
33	0xbe88ff31	-0.26757196
34	0xbe54f5e4	-0.20796925
35	0xbe0344d6	-0.12819228
36	0x3e09a153	0.13440447
37	0xbd4fb2b5	-0.050707538
38	0x3e79acce	0.24382326
39	0x3e98412a	0.29737216
40	0x3df0786a	0.11741717
41	0xbe162580	-0.14662743
42	0xbea73e8a	-0.326649
43	0x3c0cf2ab	0.008602778
44	0xbde777cb	-0.113021456
45	0xbcccab51	-0.024984034
46	0x3c563cc1	0.013076008
47	0x3e399210	0.18122125
48	0x39aaa456	0.00032547367
49	0xbe5a6878	-0.21328914
50	0x3e9a3471	0.30118135
51	0x3d68e0ed	0.05685513
52	0xbe2c8c95	-0.16850503
53	0x3d955c51	0.072929986
54	0x3db3ce42	0.08779575
55	0x3eda2bd0	0.4261155
56	0xbc8b4c92	-0.017004285
57	0x3cafb5b6	0.021448951
58	0xbd0f2b9a	-0.03495369
59	0x3e38290f	0.17984413
60	0xbecbb372	-0.39785343
61	0xbe2a50a1	-0.1663232
62	0x3e64c3a8	0.22340262
63	0x3da856e2	0.082196966
64	0x3e675967	0.22592698
65	0xbdc818ab	-0.0977033
66	0xbde1a798	-0.11018294
67	0xbc867b1e	-0.016416129
68	0x3dc29e27	0.095028214
69	0xbe7f0436	-0.2490395
70	0x3e2c4025	0.16821344
71	0xbe2099e5	-0.15683706
72	0xbe030406	-0.12794504
73	0xbdef7a5d	-0.11693261
74	0xbd99e58a	-0.07514484
75	0x3e744a5d	0.23856492
76	0xbc6733bd	-0.014111456
77	0x3eb4e77d	0.35332862
78	0xbdc937d2	-0.098251
79	0x3d170c2a	0.036876835
80	0xbc1b02a0	-0.009461075
81	0xbe98e6b5	-0.29863515
82	0x3c362397	0.011116884
83	0xbd9c2896	-0.07624929
84	0xbc72e19e	-0.014824299
85	0x3e14fdc6	0.14549932
86	0x3ebb8572	0.36625248
87	0x3d8d7b30	0.06908262
88	0x3e96cf16	0.2945487
89	0xbe317bb5	-0.17332347
90	0xbdbbe977	-0.09175389
91	0xbd991585	-0.07474808
92	0x3c3a7655	0.011380752
93	0x3ea383e8	0.31936574
94	0xbe375719	-0.17904319
95	0x3e0d72a8	0.13813269
96	0xbad32656	-0.0016109447
97	0x3e069926	0.13144359
98	0xbe4405ed	-0.19142886
99	0xbe2846be	-0.16433236
100	0x3e8a3261	0.2699156
101	0x3d01ada9	0.031659756
102	0x3d410e27	0.047132637
103	0xbcf9e906	-0.030506622
104	0x3d0553a5	0.032550473
105	0x3d917f85	0.071044005
106	0xbe12e3ab	-0.14344661
107	0x3e5a1839	0.21298303
108	0x3d02d500	0.031941414
109	0x3df03837	0.11729472
110	0x3e13ada9	0.14421715
111	0x3e0e9e9c	0.13927692
112	0xbcdf816b	-0.027283391
113	0xbe39fc06	-0.18162546
114	0x3e2f35bf	0.17110346
115	0xbd8625f3	-0.06550207
116	0x3e41845c	0.18898147
117	0x3e11d24f	0.14240383
118	0xbcaf1b78	-0.021375403
119	0xbdcba3b2	-0.09943332
120	0x3de508a2	0.11183287
121	0xbc96c817	-0.018405957
122	0x3e514db9	0.20439805
123	0xbd35e3b3	-0.044406604
124	0xbd4b986f	-0.04970592
125	0xbdae32fc	-0.08505818
126	0x3e05bb87	0.13059817
127	0xbe140b41	-0.14457418
128	0xbcf94f96	-0.030433457
129	0xbec81361	-0.39077285
130	0xbc29712e	-0.010341926
131	0xbcca1c49	-0.02467169
132	0x3c87a122	0.016556326
133	0x3d2a3518	0.04155454
134	0x3b580fcf	0.0032968407
135	0x3c07deaf	0.008292838
136	0xbce92897	-0.028461738
137	0x3d9d8e0f	0.07693111
138	0x3a373c2c	0.00069898623
139	0x3d590447	0.052982595
140	0x3d60b630	0.054861248
141	0x3cbefc27	0.023313595
142	0xbe6a6af2	-0.22892359
143	0x3e2d2404	0.1690827
144	0x3d8fac11	0.07015241
145	0xbe91fd6b	-0.28513655
146	0xbe2fda6f	-0.1717317
147	0x3e27150f	0.16316627
148	0xbdda19fb	-0.10649487
149	0xbd5495df	-0.05190074
150	0x3d82c86f	0.06385886
151	0xbe05d7b0	-0.1307056
152	0xbe27ba71	-0.16379716
153	0xbd74fd9f	-0.059812184
154	0x3a33a39b	0.0006852687
155	0x3d52ab6f	0.051433023
156	0xbbf26e2d	-0.007398388
157	0x3d36b831	0.044609252
158	0x3e90ea47	0.2830374
159	0x3dee2751	0.11628593
160	0xbd91251a	-0.07087155
161	0xbd871c35	-0.06597177
162	0xbe0d46d3	-0.13796549
163	0xbeaef3d6	-0.34170407
164	0x3e4804e8	0.19533122
165	0xbee89ada	-0.45430642
166	0x3def6063	0.11688306
167	0xbd0b3de9	-0.03399459
168	0x3e50fe56	0.20409521
169	0x3d7ec864	0.062202826
170	0xbe415a74	-0.18882161
171	0x3cfb7e49	0.030699866
172	0xbe0cdc58	-0.1375593
173	0xbe31bd1f	-0.173573
174	0x3e867021	0.26257423
175	0x3d9c4dcb	0.07632025
176	0x3d7413e7	0.059589293
177	0x3d4c66fc	0.0499029
178	0x3e942f34	0.28942263
179	0xbe0688b2	-0.13138083
180	0xbc2ab60c	-0.01041938
181	0x3d0d6f68	0.034530073
182	0x3de8a6fa	0.11359973
183	0xbd60d4d2	-0.05489046
184	0x3d3422fc	0.043978676
185	0x3e23e079	0.16003598
186	0xbd2fdfad	-0.042937923
187	0x3e273866	0.16330108
188	0x3d16f691	0.036856238
189	0x3d667487	0.056263473
190	0xbe77cc13	-0.24198942
191	0x3cf9e9b8	0.030506954
192	0xbe378050	-0.17920041
193	0x3e78bde8	0.24291193
194	0x3e1dfd40	0.15428638
195	0x3e0637c4	0.1310721
196	0x3e5d1c4f	0.2159283
197	0xbe6128b6	-0.21988186
198	0x3e470cb6	0.19438443
199	0x3b57b88d	0.0032916397
200	0x3e209a17	0.1568378
201	0xbd17f891	-0.037102286
202	0x3e4d601a	0.20056191
203	0x3e999bdf	0.30001733
204	0x3baae25c	0.0052149724
205	0xbd2dad29	-0.042401467
206	0x3d240b42	0.0400498
207	0x3dafe281	0.08588124
208	0xbe5d3363	-0.21601634
209	0xbe36a11f	-0.178349
210	0x3e99f4ab	0.3006948
211	0x3e1e4f12	0.1545985
212	0x3d8029a9	0.06257946
213	0x3e0eab6b	0.13932578
214	0x3d935ef8	0.07195848
215	0x3dd23a87	0.102650695
216	0xbec9ffa6	-0.39452857
217	0x3e590fd0	0.21197438
218	0xbcb04070	-0.021515101
219	0x3e34c1b5	0.17652018
220	0x3cfe5409	0.03104593
221	0xbbb4c701	-0.005516887
222	0x3d065bc5	0.032802362
223	0xbd54afb8	-0.05192539
224	0x3e803d4d	0.2504677
225	0xbc70bdfa	-0.014693731
226	0xbe973343	-0.29531297
227	0xbd9b6c98	-0.07589072
228	0xbdd8f97f	-0.105944626
229	0xbd22bcc0	-0.039730787
230	0xbd9078ab	-0.070542656
231	0xbe16190c	-0.14657992
232	0x3c64eff6	0.013973227
233	0xbd516e9e	-0.051130883
234	0x3e947a81	0.28999713
235	0xbe19a54e	-0.15004465
236	0x3dd20d88	0.10256487
237	0xbd9aa38e	-0.07550727
238	0x3bc6db15	0.006068597
239	0xbe468054	-0.19384891
240	0x3de93ade	0.11388181
241	0x3d86c594	0.06580654
242	0xbe2b50ec	-0.16730088
243	0x3dbe2619	0.0928461
244	0xbbda4bc8	-0.006661866
245	0x3d0c4740	0.034247637
246	0xbe1d1cd0	-0.15343022
247	0xbdbe5381	-0.09293271
248	0xbdc27d0f	-0.09496509
249	0xbda23cac	-0.079217285
250	0xbe1e20e7	-0.15442239
251	0xbd7e190d	-0.06203561
252	0xbdeaaa42	-0.11458255
253	0x3bceb1e1	0.006307826
254	0x3d4c50f0	0.049881876
255	0x3d54e57c	0.051976666

layers.0.process.0.weight f4 [64, 20]
0	0x3e158a0e	0.14603445
1	0xbd291c64	-0.04128684
2	0xbe4a2fa6	-0.19744739
3	0x3d8c0526	0.068369195
4	0xbdd9a146	-0.106264636
5	0x3d32a567	0.04361477
6	0xbe0c1cee	-0.13682911
7	0xbe272f20	-0.1632657
8	0xbc895a16	-0.01676659
9	0xbd99423b	-0.074833356
10	0x3e057ce6	0.13035926
11	0x3ca1b807	0.019741071
12	0x3e361a51	0.17783476
13	0x3d4e34a2	0.050343163
14	0xbd642c4e	-0.055706315
15	0x3e3682f5	0.17823394
16	0x3d56bbc2	0.052425154
17	0x3dc924e0	0.098214865
18	0x3b1fbefb	0.0024375308
19	0x3dc1943a	0.094521
20	0xbd55369e	-0.05205404
21	0xbce9afbc	-0.02852618
22	0xbe3cc528	-0.18434584
23	0xbc423492	-0.011853354
24	0xbe4979c5	-0.19675358
25	0xbd765f67	-0.060149577
26	0x3dee51f8	0.11636728
27	0xbe2e4d5a	-0.17021695
28	0xbe2b557a	-0.16731825
29	0xbd9659e6	-0.073413655
30	0xbda948d5	-0.08265845
31	0x3c5fdac6	0.0136629995
32	0x3c2199af	0.009863301
33	0x3da9b53c	0.08286521
34	0xbe40843a	-0.1880044
35	0xbd5a8c53	-0.05335648
36	0x3dab69fc	0.08369824
37	0x3e17a010	0.14807153
38	0xbd86d7aa	-0.065841034
39	0xbe3bb858	-0.1833204
40	0x3dad8e5d	0.08474419
41	0x3e1ac25f	0.15113209
42	0xbde29dc9	-0.110652514
43	0xbdc078c8	-0.09398037
44	0x3e11c246	0.14234266
45	0x3d13c38d	0.036075164
46	0xbe1adbec	-0.15122956
47	0xbd7af6f5	-0.061270673
48	0x3e28e9c0	0.16495419
49	0x3b60e412	0.0034315628
50	0x3e7229be	0.23648736
51	0x3e84bc75	0.2592503
52	0x3de673f9	0.11252589
53	0x3d68ed0f	0.0568667
54	0xbba317b8	-0.0049771927
55	0x3d2f3727	0.042777207
56	0x3da1cb4a	0.079001024
57	0xbe1c5fba	-0.15270892
58	0xbd76cbfd	-0.060253132
59	0xbe636dbd	-0.2220983
60	0x3e1da400	0.15394592
61	0xbe01708d	-0.12640591
62	0x3e6029a4	0.21890885
63	0xbd37c049	-0.04486111
64	0xbdf0a672	-0.11750497
65	0x3dece729	0.11567528
66	0x3d20b869	0.039238367
67	0x3e226941	0.15860464
68	0x3dc35bda	0.09539004
69	0xbe5b9b48	-0.21445954
70	0x3e1192e8	0.14216197
71	0xbd25c18c	-0.040467784
72	0xbdc260b9	-0.09491105
73	0x3e196236	0.14978871
74	0x3e34bfde	0.17651317
75	0xbe33cb57	-0.17558037
76	0x3c26365d	0.010144797
77	0x3e6690e3	0.22516207
78	0x3e102fe2	0.14080766
79	0x3e83453c	0.2563876
80	0xbd966dd4	-0.07345167
81	0xbdf55a9a	-0.119801715
82	0x3e490eef	0.19634603
83	0x3dc89d23	0.097955965
84	0x3e619620	0.22029924
85	0xbdb16e84	-0.08663657
86	0xbe0aabaa	-0.13542047
87	0xbc862d41	-0.016379
88	0xbe4b7cde	-0.19871852
89	0x3dd07a58	0.10179585
90	0x3e3a1697	0.1817268
91	0x3d9664e1	0.0734346
92	0x3a69e175	0.00089218403
93	0x3e0c9568	0.13728869
94	0xbde548d4	-0.111955315
95	0x3e812c0c	0.25228918
96	0xbe3dc8dc	-0.18533653
97	0xbe3223ee	-0.17396519
98	0xbc1ed41e	-0.009694127
99	0x3e69c9f8	0.22830951
100	0xb871f802	-5.7689853e-05
101	0x3d87c1d4	0.06628767
102	0xbe36fd5c	-0.17870086
103	0x3d99d720	0.07511735
104	0xbcc3fa6d	-0.023923123
105	0x3dca578c	0.098799795
106	0x3e337b0b	0.17527406
107	0x3dfa4ba0	0.122214556
108	0x3c4ccea8	0.012500443
109	0x3cb74929	0.022373753
110	0xbdd1312a	-0.102144554
111	0xbd359a5b	-0.044336658
112	0x3e345259	0.17609538
113	0xbd8da6e9	-0.06916601
114	0x3e14239b	0.14466707
115	0xbdd02310	-0.10162938
116	0xbdb332d8	-0.08749932
117	0xbd6711a7	-0.05641332
118	0xbe96f760	-0.29485607
119	0xbdfad005	-0.12246708
120	0xbd1cceaa	-0.038283028
121	0xbd035ff9	-0.03207395
122	0xbd575eb4	-0.05258055
123	0x3e30d0e0	0.1726718
124	0x3e2bb1b7	0.16767012
125	0xbe144905	-0.1448098
126	0x3dea112d	0.11429057
127	0xbe25e8fc	-0.16202158
128	0xbe3358fe	-0.17514417
129	0x3dabcf21	0.08389116
130	0x3c8d3d3c	0.017241113
131	0xbdc0bd90	-0.09411156
132	0xbe588bf8	-0.21147144
133	0xbdb963a2	-0.090522066
134	0x3d786f16	0.060652815
135	0xbe6e4d25	-0.23271616
136	0xbe8315bc	-0.2560252
137	0xbcc8e6f8	-0.024524197
138	0xbe6a5183	-0.22882657
139	0xbe8ed3ab	-0.27895865
140	0xbd1e0d5c	-0.03858696
141	0x3c038bb2	0.008028911
142	0xbe28cd42	-0.1648455
143	0xbdf1f2f4	-0.11813918
144	0x3d1ab4a8	0.037769943
145	0xbe48da34	-0.19614488
146	0xbccc9e36	-0.024977785
147	0xbe152205	-0.14563759
148	0xbe26f6c6	-0.16305074
149	0x3d98338e	0.07431708
150	0xbe422ffc	-0.18963617
151	0xbe419bf4	-0.18907148
152	0x3ddd2e9f	0.10799908
153	0x3ccbbbdb	0.02486985
154	0x3e44b14d	0.1920826
155	0xbd80bcd0	-0.06286013
156	0xbdcb5038	-0.0992741
157	0x3b605ebb	0.0034236151
158	0x3d3589e8	0.04432097
159	0x3e7227b6	0.23647961
160	0xbe4234d2	-0.18965462
161	0x3cb601fa	0.02221774
162	0x3e0e8391	0.13917376
163	0xbdaae2f6	-0.083440706
164	0xbd9d6bb2	-0.07686557
165	0x3e0f3d49	0.13988222
166	0xbe417a50	-0.18894315
167	0x3d90d20d	0.07071314
168	0xbe276eb5	-0.16350825
169	0x3de6b630	0.11265218
170	0xbe49f2bb	-0.197215
171	0x3dfffac9	0.12499005
172	0xbe6aa3c6	-0.22914037
173	0xbe559b87	-0.2086011
174	0xbc976148	-0.018479005
175	0x3e1f40fc	0.15552133
176	0xbe55bbc3	-0.20872407
177	0xbde37bf7	-0.11107629
178	0x3e4615d2	0.19344261
179	0xbcf22df1	-0.029562922
180	0x3da38b31	0.07985533
181	0xbe69f1f4	-0.22846204
182	0xbdaaa419	-0.083320804
183	0xbe006c59	-0.12541331
184	0x3e36aed9	0.17840137
185	0x3dadac7e	0.08480166
186	0xbe2d0a4d	-0.1689846
187	0x3d03abfb	0.032146435
188	0xbba95fbf	-0.0051688845
189	0xbdc0c07f	-0.09411716
190	0xbe05f661	-0.13082267
191	0xbda31f8e	-0.07965003
192	0x3e2aeffb	0.16693108
193	0xbe3343d5	-0.17506345
194	0xbe396327	-0.1810423
195	0xbdcb277c	-0.099196404
196	0xbd14059d	-0.036138166
197	0x3c1ff996	0.009764096
198	0xbd67ded6	-0.056608997
199	0xbe057edc	-0.13036674
200	0xbe01fedd	-0.12694879
201	0xbd19ef58	-0.03758177
202	0xbdc05f8b	-0.093932234
203	0x3e2e3498	0.1701225
204	0xbe706119	-0.2347454
205	0xbe29ef2f	-0.16595148
206	0xbe57fbf5	-0.21092208
207	0xbd990b2c	-0.07472834
208	0x3e0bdbf6	0.13658127
209	0x3e1f8ea0	0.15581751
210	0xbe71803f	-0.23584078
211	0xbd4d5d8d	-0.050138045
212	0x3dbf5e6e	0.09344183
213	0x3d86196f	0.0654782
214	0x3e20c560	0.15700293
215	0xbcbd6669	-0.023120122
216	0xbe1f502c	-0.15557927
217	0x3e2039fb	0.15647118
218	0xbd552e51	-0.052046124
219	0x3e224897	0.15848003
220	0xbd234015	-0.039856035
221	0x3decb41b	0.1155779
222	0x3e66ef64	0.22552258
223	0x3e70baaf	0.23508714
224	0xbe32a5ea	-0.17446104
225	0xbdf110d0	-0.11770785
226	0xbd7c748b	-0.06163458
227	0xbde4892e	-0.111589774
228	0x3e7b4d0c	0.2454111
229	0x3c2fb75f	0.010724871
230	0xbdf27e9e	-0.118405566
231	0xbd8fd2c7	-0.070226245
232	0xbdc25ec2	-0.0949073
233	0x3df42097	0.119202785
234	0xbe2b9eac	-0.16759747
235	0xbe39c4ca	-0.18141475
236	0xbe4623d8	-0.19349611
237	0x3dfc8ad9	0.123311706
238	0x3e0d5754	0.13802844
239	0xbde2a273	-0.11066141
240	0x3d19cd7a	0.037549473
241	0x3e17041f	0.14747666
242	0x3c68fa0a	0.01421977
243	0xbd89628d	-0.0670825
244	0xbbb05789	-0.0053815288
245	0xbd466ca7	-0.048443463
246	0x3daec0a5	0.08532838
247	0xbe3a4011	-0.18188502
248	0x3da56bf3	0.0807723
249	0x3dbb050b	0.09131821
250	0xbe2fae13	-0.17156248
251	0x3e159a03	0.14609532
252	0x3e3c54ea	0.18391767
253	0xbdf928d5	-0.12165991
254	0xbdbd1d5c	-0.092341155
255	0x3db2bf23	0.08727863

layers.0.process.0.bias f4 [64]
0	0x3e926d40	0.28598976
1	0x3d7c2a75	0.061563928
2	0xbcebae3a	-0.028769601
3	0x3e84a9fd	0.2591094
4	0x3d724821	0.05915082
5	0x3e7726d2	0.24135903
6	0xbdc33b25	-0.09532765
7	0xbdd84b60	-0.10561252
8	0x3da62fd7	0.081145935
9	0x3d5d271a	0.05399237
10	0xbe5bb4e6	-0.21455726
11	0x3e176e54	0.1478818
12	0x3e0b6385	0.13612182
13	0x3b3fef69	0.0029286987
14	0x3d89f6d3	0.06736531
15	0x3e03a4d8	0.12855852
16	0x3e908a68	0.28230596
17	0xbe25bcd5	-0.16185315
18	0xbda79d69	-0.081843205
19	0x3e1af784	0.15133482
20	0x3df2a0b5	0.11847059
21	0x3da09d17	0.078424625
22	0x3d9748d3	0.07386937
23	0xbd32e317	-0.0436736
24	0x3dfc473c	0.123182744
25	0x3d26e070	0.040741384
26	0xbd8ebf54	-0.06970087
27	0xbe32109b	-0.17389147
28	0x3e51c78a	0.20486274
29	0xbd76bb1f	-0.060237046
30	0xbd43b16e	-0.047776632
31	0x3e495971	0.19663025
32	0x3da53cc4	0.08068231
33	0x3e40b8cf	0.18820499
34	0x3cf15f5a	0.029464412
35	0x3d818cce	0.063256845
36	0x3d936df6	0.07198708
37	0x3dc21a85	0.094777144
38	0x3e3e29bd	0.1857061
39	0x3e809b6d	0.2511858
40	0xbe1a7d83	-0.15086941
41	0xbc590070	-0.013244733
42	0xbe865852	-0.26239258
43	0xbc2dfb83	-0.010619047
44	0x3dbc029b	0.091801845
45	0xbe059169	-0.13043751
46	0xbdfab7c1	-0.122420795
47	0x3df4f2c0	0.119603634
48	0xbe42caef	-0.19022726
49	0x3e3e79cf	0.18601154
50	0x3d9a6461	0.07538677
51	0x3dce06b2	0.10059871
52	0x3e50b590	0.2038176
53	0xbe2922a1	-0.16517116
54	0x3e118a43	0.14212899
55	0x3d41b7ad	0.047294308
56	0xbe43324a	-0.19062153
57	0x3dfd0b4d	0.12355671
58	0x3d1f02ef	0.038821157
59	0xbcd2ef42	-0.025748853
60	0xbbe4f049	-0.006986652
61	0xbe9a81b9	-0.30177096
62	0x3e9a1388	0.30093026
63	0x3e8010be	0.25012773

layers.0.pattern_attention.weight f4 [8, 64]
0	0xbcd11362	-0.025521938
1	0x3d1d1b11	0.03835589
2	0x3df48ddd	0.11941121
3	0x3d3b242d	0.045688797
4	0x3cf0e384	0.029405363
5	0x3da037ca	0.07823141
6	0xbdae20b3	-0.08502331
7	0xbd1e72af	-0.03868359
8	0x3cde56ea	0.027141053
9	0xbc759d35	-0.014991094
10	0x3d87c22f	0.066288345
11	0xbdf3a745	-0.118971385
12	0x3e1918d2	0.14950874
13	0x3e1a9b74	0.15098363
14	0xbc91edb0	-0.017813534
15	0xbd442ae4	-0.047892466
16	0x3d22e76b	0.03977148
17	0xbdaa1eb2	-0.08306636
18	0x3ca799f9	0.020459162
19	0x3e387ed8	0.18017137
20	0x3d7b5670	0.06136173
21	0xbd8cae72	-0.0686921
22	0xbd5709b0	-0.052499473
23	0x3d56c322	0.052432187
24	0x3e06f6b1	0.13180043
25	0x3dc1ed61	0.094691046
26	0x3d96b2fc	0.07358357
27	0xbca94a70	-0.020665377
28	0x3d6488af	0.055794414
29	0x3d7a248a	0.061070003
30	0xbc066020	-0.008201629
31	0x3dc9dd8f	0.09856712
32	0xbdae9f98	-0.08526534
33	0xbc57a8a2	-0.013162764
34	0xbdc91d90	-0.09820092
35	0xbe8bbd0b	-0.27292666
36	0xbd9919ff	-0.074756615
37	0xbdd33118	-0.10312098
38	0x3d3e56cb	0.04646949
39	0xbb92cd79	-0.0044800607
40	0xbd92ec55	-0.07173983
41	0x3c98e5e6	0.018664312
42	0xbcd5fb1f	-0.02612072
43	0x3d9139df	0.07091116
44	0xbbf3faac	-0.007445654
45	0xbb8b9aa2	-0.004260377
46	0x3d9c902d	0.07644687
47	0x3dc9d7be	0.09855603
48	0xbe06ffaf	-0.13183473
49	0x3d483c96	0.048885904
50	0x3e4cc02f	0.19995187
51	0x3d8827e6	0.06648235
52	0x3bf3d2cf	0.007440902
53	0x3e2de063	0.16980128
54	0xbde14ed2	-0.11001362
55	0x3d89e4e6	0.06733112
56	0x3d7a8c2a	0.061168827
57	0x3d375ceb	0.044766348
58	0x3de24171	0.11047638
59	0x3bc5b60e	0.0060336655
60	0x3e500f0f	0.20318244
61	0x3d154ea3	0.036451947
62	0xbc74b074	-0.014934648
63	0x3e3f3340	0.18671894
64	0x3d50723f	0.050890204
65	0x3e067df9	0.13133992
66	0x3cd921a1	0.026505293
67	0x3d7ade53	0.06124718
68	0x3d770d35	0.06031533
69	0xbd546647	-0.05185535
70	0xbd0d1a48	-0.034448892
71	0x3d79b3b2	0.060962386
72	0xbd9aebc8	-0.07564503
73	0x3c1dc853	0.009630281
74	0xba03328c	-0.00050047855
75	0xbc705787	-0.014669306
76	0xbdcacca1	-0.09902311
77	0x3df5d15b	0.12002822
78	0xbdfbf954	-0.12303415
79	0x3cd526e2	0.026019517
80	0x3d432be2	0.04764927
81	0xbdd2d4e5	-0.10294513
82	0x3dce2c5b	0.10067054
83	0xbdcbd601	-0.099529274
84	0xbd181e0c	-0.03713803
85	0x3d73b30b	0.05949692
86	0xbcfc968b	-0.030833503
87	0x3d911e3b	0.07085844
88	0xbd2fe1a7	-0.04293981
89	0xbd27ea7f	-0.040995117
90	0xbdc1cb33	-0.09462585
91	0xbd91beeb	-0.07116493
92	0x3db42e2e	0.087978706
93	0x3dd0922a	0.101841286
94	0x3d99d271	0.07510842
95	0x39ce21bc	0.00039316516
96	0xbdeb2358	-0.11481351
97	0x3de8dfa3	0.1137078
98	0xbd22aa21	-0.03971303
99	0xbd2712d7	-0.04078945
100	0xbd915bb3	-0.07097568
101	0x3dca2427	0.09870177
102	0x3d8646a1	0.0655644
103	0x3d94a2e3	0.07257631
104	0x3cb6fcf5	0.022337416
105	0xbda7253c	-0.08161399
106	0x3d6f92fd	0.05848979
107	0x3c58f5f4	0.013242234
108	0xbaf7b9a8	-0.0018899934
109	0xbc8ba7fd	-0.017047876
110	0xbd6cb992	-0.05779416
111	0x3da3403a	0.079712346
112	0x3d0dcbbe	0.03461813
113	0xbd2f06a4	-0.042730942
114	0x3dabda13	0.08391204
115	0xbd2f06d6	-0.04273113
116	0x3c17ef6e	0.009273393
117	0x3d65ec7a	0.056133725
118	0xbde3b52a	-0.11118539
119	0x3e02b58c	0.12764567
120	0x3d648e48	0.055799752
121	0xbb62e809	-0.0034623167
122	0xbd0393fa	-0.032123543
123	0x3cab78c2	0.020931605
124	0xbe12104d	-0.14264031
125	0x3ddfb161	0.10922504
126	0xbd05ebcf	-0.032695588
127	0x3d8dad13	0.06917777
128	0xbda0c04b	-0.07849177
129	0x3d390005	0.045166034
130	0x3cf0b102	0.029381279
131	0x3dcfb367	0.1014164
132	0x3d0f850b	0.03503899
133	0x3d578e8c	0.052626178
134	0x3d5e5113	0.054276537
135	0x3d90c48c	0.07068738
136	0x3da4422a	0.08020432
137	0xbdce2817	-0.1006624
138	0xbd2193a0	-0.039447427
139	0x3c0f57a8	0.008748926
140	0xbd86b771	-0.065779574
141	0x3ccf8442	0.02533162
142	0xbc1c624e	-0.009544922
143	0x3d5c3a70	0.053766668
144	0x3dc61a46	0.0967298
145	0x3dff89e3	0.12477472
146	0x3dd374c4	0.10325006
147	0xbe5dfece	-0.21679232
148	0xbda3861a	-0.07984562
149	0xbcc1504f	-0.023597864
150	0x3d043725	0.032279152
151	0x3d9308cc	0.07179412
152	0xbdf8219b	-0.12115785
153	0x3d62eb23	0.055400025
154	0x3e054231	0.13013531
155	0x3db7eeb0	0.08981073
156	0xbd5e36fb	-0.054251652
157	0x3cc41503	0.0239358
158	0xbdeb141a	-0.114784434
159	0x3d6282d2	0.05530054
160	0xbda35a86	-0.0797625
161	0x3db57d02	0.08861734
162	0x3b2b6f90	0.0026159026
163	0x3c9b2d4f	0.018942503
164	0xbdb4151a	-0.08793087
165	0xbafbf9bf	-0.001922421
166	0xbc189449	-0.009312698
167	0xbd4b6acd	-0.0496624
168	0x3dc7844d	0.09742031
169	0x3dc1dd5a	0.094660476
170	0xbd354a4e	-0.044260316
171	0x3c4c85c8	0.012483068
172	0x3d65467e	0.05597543
173	0x3dec5582	0.11539747
174	0xbccaefae	-0.024772491
175	0x3dc97911	0.09837545
176	0x3dc61c40	0.09673357
177	0xbc56cb25	-0.013109957
178	0x3d23c7bf	0.039985415
179	0xbe1c2e4f	-0.1525204
180	0x3ddb7981	0.107165344
181	0x3e07593f	0.13217638
182	0xbbaeab83	-0.0053305044
183	0x3d1e807a	0.038696744
184	0x3e3bc499	0.18336715
185	0x3cc4a223	0.024003094
186	0x3c83ba6e	0.016080108
187	0x3dae3e7a	0.0850801
188	0xbd089171	-0.03334183
189	0x3d884940	0.06654596
190	0xbda71112	-0.08157553
191	0x3d337bfb	0.04381941
192	0xbdedbec3	-0.116086505
193	0x3d2b0a06	0.041757606
194	0x3d27b6f2	0.040945955
195	0x3db32a71	0.087483294
196	0x3d3c5ea1	0.045988683
197	0x3d9e77e5	0.07737712
198	0xbd787ea0	-0.060667634
199	0x3c1fd2eb	0.009754877
200	0x3d4d5fc7	0.05014017
201	0xbdad4eca	-0.084622934
202	0xbd77ddcc	-0.060514256
203	0x3d7f6250	0.062349617
204	0xbd479f31	-0.0487358
205	0x3d0b376d	0.033988405
206	0xb93f3f94	-0.00018238864
207	0xbd0f9d70	-0.035062253
208	0xbde8fd76	-0.11376469
209	0x3cf9620d	0.030442262
210	0xbca3d755	-0.02000014
211	0x3e8036ac	0.2504171
212	0x3d5a2b79	0.053264115
213	0xbe202a61	-0.15641166
214	0xbdd16efa	-0.10226245
215	0x3bd705b1	0.0065619578
216	0xbc9880d1	-0.018616112
217	0x3d9c4b22	0.07631518
218	0x3d24de40	0.040251017
219	0x3e02dca9	0.12779488
220	0x3c9ac31b	0.018891862
221	0x3d04652f	0.03232306
222	0x3dbd2e05	0.09237293
223	0xbdb06c16	-0.08614366
224	0x3d34aecc	0.04411201
225	0x3df42dc9	0.11922795
226	0xbd681e03	-0.056669246
227	0xbe6ffd70	-0.23436522
228	0xbdb21bcb	-0.08696707
229	0xbdc60429	-0.09668762
230	0x3d6ba95f	0.05753457
231	0x3da3e264	0.08002165
232	0xbda448a2	-0.08021666
233	0x3d041f4b	0.032256406
234	0x3dee51a4	0.116366655
235	0x3d3388eb	0.043831747
236	0x3e387e00	0.18016815
237	0x3de416c8	0.11137158
238	0x3ddbefc6	0.107390925
239	0xbd8ae590	-0.06782067
240	0xbe469546	-0.19392881
241	0x3dc3c257	0.09558552
242	0xbe290877	-0.16507135
243	0x3dd10cc3	0.10207512
244	0xbe7fdc67	-0.2498642
245	0x3d813169	0.06308252
246	0x3e03a8ca	0.12857357
247	0x3cd5f422	0.026117388
248	0x3e0ab452	0.13545349
249	0x3cae010d	0.021240735
250	0x3d64e582	0.05588294
251	0x3ce127d2	0.027484808
252	0x3db77535	0.08957902
253	0x3bf29804	0.0074033756
254	0x3ddcb6a0	0.107770205
255	0x3bc7977f	0.006091058

layers.0.pattern_attention.bias f4 [8]
0	0x3ec138e5	0.3773872
1	0xbccd1637	-0.025035007
2	0xbe813bb1	-0.25240853
3	0x3e195965	0.14975508
4	0x3eb9eea4	0.3631488
5	0x3e7a5b58	0.24448907
6	0x3e539914	0.20663863
7	0x3e19a3e2	0.15003923

layers.0.next_pattern_attention.weight f4 [8, 64]
0	0xbd9b6f0e	-0.075895414
1	0x3d11d2bc	0.035601363
2	0xbd1fcd50	-0.03901416
3	0xbd74d3dc	-0.059772357
4	0xbabefe80	-0.0014571697
5	0xbdaa34ee	-0.08310877
6	0x3dd3e0f6	0.10345642
7	0x3da1fde8	0.07909757
8	0x3df253f6	0.118324205
9	0xbcb55ef0	-0.022139996
10	0x3d273778	0.040824383
11	0xbba4bfe0	-0.005027756
12	0xbdd3d5b4	-0.10343495
13	0x3d67a338	0.056552142
14	0xbdb2d060	-0.087311506
15	0xbd38d288	-0.045122653
16	0xbd654938	-0.05597803
17	0xbdf9bee6	-0.12194614
18	0x3b92eac0	0.004483551
19	0x3ca7c170	0.02047798
20	0xbc1841d0	-0.009293035
21	0x3dbc46ae	0.091931686
22	0x3bc464a0	0.0059934407
23	0xbcba8518	-0.022768542
24	0xbd8ba226	-0.06818037
25	0xbd980a2c	-0.07423815
26	0xbc919530	-0.017771333
27	0xbd963f5c	-0.073363036
28	0xbda8e054	-0.08245912
29	0xbc876fd0	-0.016532809
30	0xbcb4cdb0	-0.022070736
31	0xbd9c44aa	-0.07630284
32	0x3d959402	0.07303621
33	0x3dd91b92	0.10600962
34	0xbdae8c4c	-0.08522853
35	0x3d6042c0	0.054751158
36	0xbd6d92c4	-0.058001295
37	0xbc54a6f0	-0.012979254
38	0x3deefa26	0.11668806
39	0x3c8307f0	0.015994996
40	0xbdf416da	-0.11918421
41	0x3deb5682	0.114911094
42	0xbbad4ca0	-0.0052886754
43	0xbd80301a	-0.06259175
44	0xbd873238	-0.06601375
45	0x3ddb8746	0.10719161
46	0x3b0a4240	0.0021096617
47	0x3d8d65d2	0.06904186
48	0x3da8401a	0.082153514
49	0xbd46b92c	-0.048516437
50	0x3c2dd460	0.010609716
51	0xbda59850	-0.08085692
52	0x3dd5c614	0.10438171
53	0xbd875f0e	-0.06609927
54	0x3daa0a56	0.08302753
55	0x3d01b994	0.03167112
56	0x3d9deb0a	0.07710846
57	0xbdb45eb0	-0.08807123
58	0xbb7ec300	-0.0038873553
59	0x3d84a61e	0.06476997
60	0xbba37e40	-0.0049894154
61	0xbaeb1580	-0.0017935485
62	0x3d798000	0.060913086
63	0xbdbf55ba	-0.09342523
64	0xbccd4cf8	-0.025061116
65	0x3d693638	0.056936473
66	0x3d7b1c18	0.06130609
67	0x3dedc4b0	0.11609781
68	0xbcca9050	-0.024727017
69	0x3cf2a018	0.029617354
70	0xbd7beaf0	-0.06150335
71	0xbcabdcd8	-0.02097933
72	0xbd808430	-0.06275213
73	0x3dbdb6be	0.09263371
74	0x3a479b00	0.00076143444
75	0x3d5049c8	0.050851613
76	0x3d8ccfd2	0.06875576
77	0x3cbed218	0.02329354
78	0x3c59f220	0.013302356
79	0xbc15e570	-0.00914894
80	0xbdd8d9e6	-0.10588436
81	0x3ca4fbf8	0.02013968
82	0xbce2dc78	-0.027693018
83	0xbdd72cde	-0.105066046
84	0x3dee82d4	0.11646047
85	0xbc5a5580	-0.013326049
86	0xbd7f884c	-0.062385842
87	0xbdf9386c	-0.12168965
88	0xbdebc9b4	-0.11513081
89	0x3d42f8a8	0.04760042
90	0xbd69baf4	-0.057063058
91	0xbd5d2b94	-0.053996637
92	0xbd942088	-0.07232767
93	0x3dcea51e	0.10090087
94	0xbcf62870	-0.030048579
95	0x3da5ef44	0.08102277
96	0x3dcb3bc8	0.09923512
97	0xbdc67a2c	-0.09691271
98	0x3dbefcce	0.093255624
99	0xbcc38a70	-0.023869723
100	0x3df53058	0.119721115
101	0x3d82c2a8	0.06384784
102	0xbdf7fb98	-0.121085346
103	0x3cbe3cc8	0.023222342
104	0x3d33fb2c	0.043940708
105	0xbd39bd50	-0.045346558
106	0x3dc220a2	0.094788805
107	0xbdd40002	-0.10351564
108	0xbd2275ec	-0.03966324
109	0x3df3eca6	0.119103715
110	0x3dfa058e	0.12208091
111	0x3d7fc3fc	0.062442765
112	0xbd98d178	-0.07461828
113	0xbddc4342	-0.10755016
114	0xbdd02546	-0.10163359
115	0xbcfffcb0	-0.03124842
116	0x3d9105e4	0.07081202
117	0x3d22196c	0.039575025
118	0xbc78b600	-0.015180111
119	0x3de63bd6	0.112418815
120	0x3dc90752	0.09815849
121	0xbd6f4cb8	-0.058422774
122	0xbd5db98c	-0.05413203
123	0xbac03980	-0.0014665574
124	0x3cd47f90	0.025939733
125	0xba6a9400	-0.00089484453
126	0x3d45aa24	0.048257962
127	0x3db0a06c	0.08624348
128	0xbcb8a3c0	-0.02253902
129	0x3d7b7064	0.06138648
130	0x3c8b4508	0.01700069
131	0x3d448844	0.047981516
132	0x3d52c7c4	0.051460043
133	0xbd08d944	-0.033410326
134	0xbd6447c0	-0.05573249
135	0x3d5ad8c4	0.05342938
136	0xbda3e784	-0.080031425
137	0x3d86668e	0.065625295
138	0xbda44144	-0.08020261
139	0x3daf9ffc	0.085754365
140	0x3d4d6f40	0.050154924
141	0xbcfadd50	-0.030623108
142	0x3d9253f6	0.071449205
143	0xbd289d6c	-0.041165754
144	0x3cda2848	0.026630536
145	0x3d16beb8	0.036802977
146	0x3c5128c0	0.012766063
147	0x3ccda2c0	0.02510202
148	0xbb22a0c0	-0.0024815053
149	0xbd13ea2c	-0.036111996
150	0x3d8ed32c	0.069738716
151	0x3d49f2e0	0.04930389
152	0x3d3ef938	0.046624392
153	0x3dacd45a	0.0843894
154	0xbd85f1be	-0.06540249
155	0xbcedea10	-0.029042274
156	0xbb697f00	-0.0035628676
157	0x3dce968a	0.10087307
158	0xbdcbdb06	-0.09953885
159	0xbd92d768	-0.07169992
160	0xbcf3eab8	-0.029775009
161	0xbddaace8	-0.106775105
162	0xbdca4200	-0.0987587
163	0x3daf5d8a	0.08562763
164	0x3bbf12c0	0.0058310926
165	0xbdcdf22e	-0.10055958
166	0xbca914f8	-0.020639881
167	0xbb86a9e0	-0.004109606
168	0xbd360634	-0.04443951
169	0xbdd6217e	-0.10455607
170	0x3d8b5314	0.06802955
171	0xbc7cf3a0	-0.015438944
172	0x3df9f0f4	0.12204161
173	0xbdc40fe0	-0.095733404
174	0xbd8c8a72	-0.06862344
175	0xbbd4cca0	-0.0064941198
176	0xbdb245b4	-0.08704701
177	0x3dba90d6	0.091096565
178	0x3dc5f8a8	0.09666568
179	0x3de7eb52	0.11324181
180	0xbda19a5c	-0.0789077
181	0x3db624e6	0.088937566
182	0x3db1bfd4	0.086791664
183	0xbd4bb8e8	-0.049736887
184	0x3c60ba60	0.01371631
185	0x3d73fa88	0.059565097
186	0x3db730e2	0.089448705
187	0xbdef1a6c	-0.116749614
188	0x3dfeddfe	0.124446854
189	0xbd00ba64	-0.031427756
190	0x3d509ca0	0.05093062
191	0xbd9effb0	-0.07763612
192	0xbdc500ca	-0.09619291
193	0xbdad5f44	-0.08465436
194	0x3d96dff6	0.07366936
195	0xbd7c8d70	-0.061658323
196	0x3d94d0c4	0.072663814
197	0x3d1ac8ec	0.03778927
198	0x3d4ba964	0.04972209
199	0xbce3c328	-0.027803019
200	0xbd21f520	-0.03954041
201	0xbd6f8e04	-0.058485046
202	0xbd8f188c	-0.06987104
203	0x3dec0a3e	0.11525391
204	0xbbde9a00	-0.0067932606
205	0xbd5b9054	-0.05360444
206	0xbdee2f04	-0.11630061
207	0x3bb23060	0.0054378957
208	0xbdfe1d80	-0.124079704
209	0xbac0ed80	-0.0014719218
210	0x3da1a3ee	0.07892595
211	0xbd9372b2	-0.07199611
212	0x3d8ca818	0.06867999
213	0xbd2352b0	-0.03987378
214	0xbdc4e46a	-0.09613879
215	0xbdfd8d68	-0.12380487
216	0x3d7e59e0	0.06209743
217	0xbdc3dd1c	-0.09563658
218	0x3d79ff6c	0.061034605
219	0x3c929d78	0.017897353
220	0x3d8b2272	0.06793679
221	0xbdc06ed6	-0.0939614
222	0x3ddfded8	0.10931176
223	0xbdfefbe8	-0.12450391
224	0xbdc25022	-0.0948794
225	0x3d998522	0.07496096
226	0x3b8b34e0	0.0042482466
227	0xbd8fc0c2	-0.070191875
228	0xbcd6cc88	-0.026220575
229	0xbde3d2c6	-0.11124186
230	0xbddecc92	-0.108788624
231	0xbcdbb1f8	-0.02681826
232	0x3dc34a4a	0.09535654
233	0x3d18e800	0.037330627
234	0x3cc118b8	0.023571357
235	0xbd07b1cc	-0.033128545
236	0x3de90110	0.11377156
237	0x3a9cea00	0.0011971593
238	0x3d2ce0d4	0.0422066
239	0x3b023480	0.0019867718
240	0x3c9fca80	0.01950574
241	0x3d2abc34	0.04168339
242	0x3dc47310	0.09592259
243	0x3d935b0c	0.071951
244	0x3c830cd8	0.015997335
245	0x3d4cb294	0.049974993
246	0xbd19f974	-0.037591413
247	0x3daefc50	0.085442185
248	0x3d0fba68	0.03508988
249	0x3dc132bc	0.09433505
250	0xbc9fe1a0	-0.019516766
251	0xbdd1048e	-0.10205947
252	0x3cca4968	0.024693206
253	0x3d503d40	0.050839663
254	0x3dceda74	0.101002604
255	0x3d46725c	0.048448905

layers.0.next_pattern_attention.bias f4 [8]
0	0x3df3b834	0.11900368
1	0xbc4eb420	-0.012616187
2	0x3d085dbc	0.033292517
3	0xbdfee898	-0.124467075
4	0x3c63fea0	0.013915688
5	0xbd7d65a8	-0.061864525
6	0xbda04ac2	-0.07826759
7	0xbd55c5fc	-0.052190766

layers.0.to_penultimate.weight f4 [32, 64]
0	0x3d007ff9	0.031372044
1	0xbd6b1657	-0.05739435
2	0xbe0650fd	-0.13116832
3	0x3df9f3f0	0.122047305
4	0x3d5343f8	0.051578492
5	0xbe3a2c8d	-0.18181057
6	0xbc11a00f	-0.008888259
7	0x3d061634	0.03273602
8	0xbc4131dd	-0.0117916735
9	0x3b508ab7	0.0031820962
10	0x3cde2bfa	0.027120579
11	0x3cf17508	0.02947475
12	0xbd7d5744	-0.0618508
13	0xbd29329d	-0.041308034
14	0x3df3984b	0.11894282
15	0xbde66581	-0.11249829
16	0x3c60d01d	0.013721493
17	0x3ddfd5e1	0.10929466
18	0xbdbae3db	-0.09125491
19	0xbd1e2602	-0.038610466
20	0x3e04dce5	0.1297489
21	0xbc164a7c	-0.009173032
22	0xbc39864b	-0.011323522
23	0xbd09a564	-0.033604994
24	0xba97a427	-0.0011569307
25	0xbd0b26a2	-0.03397239
26	0xbc9a1ce2	-0.0188126
27	0x3de15cbf	0.11004018
28	0xbdaa5251	-0.08316482
29	0xbe0c08fa	-0.136753
30	0x3d81cf5a	0.06338377
31	0xbdafcc5e	-0.08583902
32	0x3a4899d3	0.0007652316
33	0x3d46b93a	0.04851649
34	0x3d043340	0.03227544
35	0xbd263df7	-0.040586438
36	0xbbf79775	-0.007555897
37	0x3c26f0a2	0.010189207
38	0xbd88b810	-0.06675732
39	0xbd79cc8e	-0.060986094
40	0xbd63c456	-0.055607162
41	0x3e00b3bf	0.12568568
42	0x3dade549	0.08490998
43	0x3d666514	0.05624874
44	0x3cf6f752	0.030147228
45	0xbc282729	-0.010263243
46	0x3e090071	0.13379075
47	0x3d3a60b4	0.04550238
48	0xbca73968	-0.020413116
49	0xbda743fa	-0.081672624
50	0x3c840dc7	0.01611985
51	0xbdcf9011	-0.101349
52	0x3d9fb52b	0.07798227
53	0xbdaac3c2	-0.08338119
54	0xbd4f37ca	-0.050590314
55	0x3d29df30	0.041472614
56	0xbd81314f	-0.06308233
57	0x3e0c5a76	0.13706383
58	0xbdefef5a	-0.117155746
59	0x3e17fb97	0.14842068
60	0xbc8eae09	-0.01741697
61	0xbd220e72	-0.039564557
62	0x3e07a19b	0.13245241
63	0xbdf86ddd	-0.1213033
64	0xbd4228ac	-0.04740207
65	0xbdcd700a	-0.100311354
66	0xbd0af7da	-0.033927776
67	0x3d36e518	0.044652075
68	0xbdbe5eeb	-0.09295448
69	0x3d632e32	0.055463977
70	0xbd0f8677	-0.035040345
71	0xbd852ac8	-0.065023005
72	0xbc5d4e61	-0.0135074565
73	0xbda58ba8	-0.08083278
74	0x3d931cc8	0.07183224
75	0x3ca54b1e	0.02017742
76	0xbc1af073	-0.009456742
77	0x3c9c4cf2	0.01907966
78	0x3dcbfe74	0.099606425
79	0xbdee1ef7	-0.11627
80	0xbd9a2d76	-0.07528202
81	0xbcce08f2	-0.02515075
82	0xbd7454d3	-0.059651207
83	0x3cd7fabe	0.02636468
84	0x3ce27ec7	0.027648343
85	0xbdd16658	-0.10224599
86	0xbc27a358	-0.010231815
87	0x3d8ca733	0.06867828
88	0x3c5e146a	0.013554672
89	0xbd4d7909	-0.050164256
90	0x3da2e8e6	0.07954578
91	0xbd7a3a78	-0.061090916
92	0xbe0b489e	-0.1360192
93	0x3d073ffd	0.03302001
94	0x3df4d9a2	0.11955573
95	0x3d863c6d	0.06554494
96	0x3e09eca1	0.13469173
97	0xbdaf8e73	-0.08572092
98	0x3d20af1e	0.039229505
99	0xbd333508	-0.043751746
100	0x3d56752c	0.052357838
101	0x3e07d54d	0.13264962
102	0x3cd2c76f	0.025729863
103	0xbe199cb5	-0.15001185
104	0xbcc6b66e	-0.024256911
105	0xbd908e44	-0.07058385
106	0x3da0d47c	0.07853028
107	0x3c7e6e31	0.015529201
108	0xbdb69459	-0.08915014
109	0xbd850870	-0.0649575
110	0x3da5f526	0.08103399
111	0x3cec292d	0.028828228
112	0x3da016b0	0.07816827
113	0xbc736b93	-0.014857191
114	0x3c611813	0.01373865
115	0xbcb60437	-0.022218807
116	0x3d5aa577	0.053380456
117	0x3cf10c21	0.029424729
118	0x3dde5d11	0.10857595
119	0x3ce4aa5e	0.027913269
120	0xbd7412f2	-0.05958838
121	0xbd96d4a2	-0.07364775
122	0xbe2afc9f	-0.1669793
123	0xbc7d0d8b	-0.015445123
124	0xbd20544d	-0.039142895
125	0x3e070821	0.13186695
126	0x3d31790a	0.043328322
127	0x3d1b55aa	0.037923492
128	0x3d00ea52	0.031473465
129	0xbd9796a8	-0.07401782
130	0xbd562c30	-0.052288234
131	0x3c74709a	0.014919424
132	0x3d349f85	0.044097442
133	0x3bec89e2	0.0072185853
134	0x3d606dbb	0.054792147
135	0xbdfea3ea	-0.12433608
136	0x3c943ec3	0.018096333
137	0x3d6d47c7	0.05792978
138	0xbd15afcb	-0.036544602
139	0x3bb7f8e4	0.005614387
140	0x3cd4105e	0.02588671
141	0xbd3e5cd3	-0.046475243
142	0x3d8ad08b	0.06778058
143	0xbd94478f	-0.07240211
144	0xbcc3413f	-0.023834823
145	0xbdc852b0	-0.097813964
146	0xbe0b62c3	-0.13611893
147	0x3d9cf408	0.07663733
148	0xbd5d46cd	-0.0540226
149	0xbdc6a195	-0.09698788
150	0x3d7d8fa8	0.06190458
151	0xbd31d87f	-0.043419357
152	0x3d70306d	0.058639932
153	0x3d2bdcfd	0.041958798
154	0x3c0ee3d6	0.0087213125
155	0x3d21a961	0.039468173
156	0x3dc84e3c	0.09780547
157	0xbd9fff55	-0.078123726
158	0x3b8e3360	0.0043396205
159	0x3e09930e	0.13435003
160	0xbd658ea4	-0.056044236
161	0x3cea44e4	0.028597303
162	0x3bb38df8	0.0054795705
163	0xbcc91885	-0.024547825
164	0xbc8faaf6	-0.017537575
165	0xbe186eaa	-0.14885965
166	0x3e05db38	0.13071907
167	0x3db667f1	0.08906544
168	0xbc6ce052	-0.014457779
169	0xbc4acb81	-0.012377621
170	0xbdf685a1	-0.120372064
171	0xbd89c2e3	-0.06726625
172	0xbbec84d4	-0.007217983
173	0x3d5fb219	0.054613207
174	0xbddeb40c	-0.10874185
175	0xbb7d9f25	-0.0038699594
176	0x38d93bf5	0.00010358534
177	0x3dd58447	0.104256205
178	0xbda8367c	-0.08213517
179	0xbb27ff65	-0.0025634405
180	0x3d3cdfd1	0.046111885
181	0xbdf9ac85	-0.121911086
182	0xbb92dfd2	-0.004482248
183	0x3da8a8e4	0.08235338
184	0x3d1ff5cf	0.03905278
185	0xbcb88f5c	-0.022529297
186	0x3dc9510f	0.09829914
187	0xbdeff088	-0.117157996
188	0x3e241872	0.1602495
189	0xbc3e0c13	-0.011599558
190	0x3ccb6f9f	0.024833499
191	0x3d1ac8af	0.037789043
192	0x3c969966	0.018383693
193	0x3d0271a6	0.031846665
194	0x3d836738	0.06416172
195	0x3e2070a0	0.15667963
196	0xbdba659b	-0.09101411
197	0xbd73c26d	-0.05951159
198	0xbe018284	-0.12647444
199	0x3d9b7fc7	0.07592731
200	0x3d965d76	0.07342045
201	0xbdec8d5b	-0.11550399
202	0x3d00e78a	0.031470813
203	0x3d77140c	0.060321853
204	0x3de073df	0.10959601
205	0xbda6ec16	-0.081504986
206	0x3de10b04	0.10988429
207	0xbd6bc29f	-0.057558652
208	0xbe1e9e85	-0.15490158
209	0x3c9fdf69	0.01951571
210	0x3da6c5ac	0.08143172
211	0x3db9c3dc	0.0907056
212	0xbd7c8ec4	-0.06165959
213	0xbdbebe31	-0.0931362
214	0xbdf88ba2	-0.12136008
215	0x3c726825	0.014795338
216	0xbe25916f	-0.1616876
217	0x3c855dd2	0.016280089
218	0xbd95d555	-0.073160805
219	0x3da3e46e	0.08002554
220	0xbd48e8e4	-0.049050227
221	0xbdaf698d	-0.08565054
222	0x3d2e0a68	0.042490393
223	0x3d7399dc	0.059472904
224	0x3d463679	0.048391793
225	0xbda0a3c6	-0.07843737
226	0x3c665614	0.014058609
227	0xbda0b2e2	-0.07846619
228	0xbce21947	-0.027599944
229	0x3bd7c7e4	0.006585108
230	0xbdeb717b	-0.11496254
231	0x3d9172ae	0.071019515
232	0x3d621f57	0.05520567
233	0x3e081c6f	0.13292097
234	0xbbb76224	-0.005596416
235	0x3c752803	0.014963153
236	0x3d02fdba	0.031980254
237	0xbd7f851d	-0.062382806
238	0xbab6d971	-0.0013950301
239	0xbdd82798	-0.10554427
240	0x3d6466b5	0.05576201
241	0x3dcd666f	0.10029303
242	0xbe18ce89	-0.14922537
243	0xbcd6d37b	-0.026223889
244	0xbd608cfc	-0.054821953
245	0xbcd09ae5	-0.025464484
246	0x3dc1cee7	0.094632916
247	0x3d2a7a26	0.041620396
248	0x3a75b31e	0.0009372699
249	0x3dbc028f	0.091801755
250	0xbc486a79	-0.012232416
251	0x3dc9134d	0.098181345
252	0xbe22ccf3	-0.15898494
253	0x3d5e5829	0.054283295
254	0xbd7286c0	-0.05921054
255	0xbdbdd388	-0.09268862

layers.0.to_penultimate.bias f4 [32]
0	0x3d54753c	0.051869616
1	0xbda99b44	-0.08281568
2	0x3dc77b5d	0.097403266
3	0xbd603467	-0.054737475
4	0x3d0efdbd	0.034909952
5	0xbd861e1d	-0.065487124
6	0xbdd7d9e1	-0.10539604
7	0xbd1dbf53	-0.03851254
8	0xbd511b93	-0.051051687
9	0xbc6a7de4	-0.014312241
10	0xbd0d0cd1	-0.03443605
11	0xbc6f3d16	-0.014601966
12	0xbdeebfa9	-0.1165765
13	0x3e11c8d6	0.14236769
14	0x3d4d2b44	0.05009009
15	0xbcc77f79	-0.024352776
16	0x3de34bc5	0.11098436
17	0xbd10565b	-0.035238605
18	0xbda77194	-0.0817596
19	0x3d7834ac	0.060597107
20	0xbcb9c905	-0.022678861
21	0x3d977faf	0.073974006
22	0xbc5a211d	-0.013313559
23	0xbdfaa2e8	-0.12238103
24	0x3e002995	0.12515862
25	0x3bff88e1	0.0077982997
26	0x3c8eceb7	0.017432554
27	0x3c074d64	0.008258197
28	0xbdf5277a	-0.1197042
29	0x3d778524	0.060429707
30	0x3ca895e3	0.020579284
31	0xbd7eaaa6	-0.06217446
